Other/UI_CNN.model (torch, 160054 bytes, 20 tensors)

weight f4 [128, 8, 5]
0.09782177 0.016075827 0.08592693 0.14807263 -1.040357 0.06914685 0.17746153 0.2889288
0.11476358 -0.05886205 0.14162129 0.11094435 0.07865333 0.09711667 0.3989622 -0.038089648
0.017106818 0.0630923 0.0013251469 0.1318263 0.043524683 0.16267149 -0.07828934 0.038624436
-0.03176846 -0.13159853 -0.118747845 -0.0068986216 0.16952838 -0.10899059 0.041982636 0.06052985
0.038850635 -0.09711246 0.08907069 0.07175206 -0.02580315 -0.17135766 -0.1416746 -0.30524147
-0.48490185 -0.1758647 -0.0277901 0.0805566 0.20978174 0.19530964 0.11526885 0.0655218
-0.050255198 -0.035209503 -0.48971033 -0.13446108 -0.08029244 0.20223543 0.19396596 0.146829
0.12319041 0.14671363 0.070585005 0.06359282 0.51353216 0.10295896 0.018989671 0.0032303266
-0.09527065 0.25687653 0.46402842 0.2473386 -0.0955202 -0.075323164 0.23854184 0.27278194
-0.064851 -0.01708793 -0.043861035 -0.29795918 -0.024143595 0.20427105 0.13881096 0.102721065
0.01424622 0.027204856 0.0247579 0.011562192 0.025913209 -0.0040241536 0.027761891 -0.005771642
-0.007885528 0.028838648 0.07626908 -0.064430885 -0.0037155226 0.07483297 0.09124036 -1.2276605
0.48641238 -0.14305477 -0.088356785 -0.7404755 0.30360043 0.015015031 0.1949716 0.053137094
0.0647762 0.017544037 -0.00046318103 0.007315257 0.060956936 0.034474175 0.011843414 0.0041771443
-0.013311365 -0.02601304 0.011857682 0.01689149 0.011551355 0.0088069625 0.035986476 0.0139144
0.027766079 0.015730927 0.16857627 -0.076820135 -0.18168391 0.009703218 -0.06788689 -0.16304933
0.3977864 -0.040093973 -0.02780943 -0.039649665 -0.04672098 0.10236576 0.061560676 -0.12246361
-0.18048646 -0.115221165 -0.26176757 -0.22728139 0.009295406 -0.07188277 0.25632724 -0.15124361
0.16728936 0.07162561 0.111364044 -0.034007154 0.6421881 -0.49753237 -0.011775088 0.05255849
0.17104605 -0.59827465 0.1529886 0.17555209 0.22068226 0.17767718 0.1283012 -0.115730025
0.02190958 0.06769896 0.01150942 -0.011668274 -0.059477463 0.014459001 0.006525022 0.042515047
0.021446783 0.052571077 0.091527246 0.0012326293 0.0024851027 0.011160084 0.045604464 -0.47496873
-0.40724918 -0.29779145 -0.3248782 -0.40942764 0.5018313 0.56552035 0.37027192 0.29595912
0.41123006 -0.013952113 -0.03850844 -0.027518386 -0.0032094843 -0.019505905 0.0077876803 -0.008980876
0.003801709 0.00392129 9.556056e-06 -0.024424363 0.016710002 0.029973479 0.014850833 0.09477092
-0.25486964 -0.095700674 0.13286045 -0.025144942 0.04884486 0.024116041 0.013756496 0.02832286
0.056361377 0.042073347 0.2725474 0.05078617 -0.10094401 0.06643801 0.1825987 0.18878339
0.10336164 0.013109485 0.077876024 0.084124215 -0.4658438 -0.16609852 0.039526112 -0.14769782
-0.18676263 -0.63704515 -0.1932881 0.0018780908 -0.27219966 -0.23754074 -0.6978422 -0.24101172
0.14057508 -0.22755742 -0.0033298307 -0.37506053 -0.28825143 -0.09270223 0.0628952 -0.44144085
-0.090065576 -0.17014624 -0.13265327 -0.20732759 -0.04605965 -0.025726473 0.07045511 0.02007484
0.11995928 0.07913172 -0.025188403 -0.003142906 0.018977314 -0.14619468 -0.1568133 -0.04114211
00000000: c856 c83d 74b1 833c 75fa af3d 5aa0 173e
00000010: 6b2a 85bf dd9c 8d3d 7ab8 353e 7aee 933e
00000020: 2b09 eb3d 5519 71bd 2c05 113e cb36 e33d
00000030: ff14 a13d 1be5 c63d c644 cc3e e403 1cbd
00000040: 9923 8c3c 8936 813d 8db0 ad3a 79fd 063e
00000050: f046 323d 5b93 263e 2956 a0bd a834 1e3d
00000060: a51f 02bd c4c1 06be 1232 f3bd d50d e2bb
00000070: d998 2d3e 7536 dfbd fcf5 2b3d 26ee 773d
00000080: d821 1f3d e6e2 c6bd b26a b63d bef2 923d
00000090: 2161 d3bc 6278 2fbe 2513 11be 9c48 9cbe
000000a0: 0e45 f8be e015 34be 10a8 e3bc dcfa a43d
000000b0: 06d1 563e 40ff 473e 1312 ec3d 4b30 863d
000000c0: 65d8 4dbd d737 10bd 50bb fabe 2ab0 09be
000000d0: 5d70 a4bd ce16 4f3e 039f 463e 575a 163e
000000e0: 414b fc3d 193c 163e df8e 903d f43c 823d
000000f0: d876 033f 26dc d23d 3a90 9b3c e3b3 533b
00000100: 421d c3bd 5285 833e 2295 ed3e 5446 7d3e
00000110: 18a0 c3bd 0843 9abd 5044 743e 13aa 8b3e
00000120: 9ad0 84bd fdfb 8bbc a1a7 33bd 1b8e 98be
00000130: cac8 c5bc 6e2c 513e 7624 0e3e 6c5f d23d
00000140: fa68 693c b8dc de3c 14d1 ca3c 596f 3d3c
00000150: f047 d43c 0cdd 83bb e86c e33c 0b20 bdbb
00000160: 4d32 01bc 073f ec3c f732 9c3d 57f4 83bd
00000170: 2080 73bb 0742 993d 3adc ba3d fb23 9dbf
00000180: 0b0b f93e f37c 12be 67f4 b4bd cd8f 3dbf
00000190: 8471 9b3e 9b01 763c a3a6 473e 48a6 593d
000001a0: 62a9 843d 83b8 8f3c 1bd7 f2b9 d3b4 ef3b
000001b0: fbad 793d cb34 0d3d e10a 423c 6de0 883b
000001c0: e917 5abc 4d19 d5bc b946 423c 0660 8a3c
000001d0: e541 3d3c 144b 103c 8e66 133d 39f9 633c
000001e0: b075 e33c 25de 803c 429f 2c3e e053 9dbd
000001f0: 590b 3abe 3ffa 1e3c 4808 8bbd 67f6 26be
00000200: a9aa cb3e 9439 24bd 9ad0 e3bc b067 22bd
00000210: 805e 3fbd 24a5 d13d 0c27 7c3d 33ce fabd
00000220: 71d1 38be 13f9 ebbd 6606 86be 74bc 68be
00000230: c24b 183c 4637 93bd 533d 833e 9bdf 1abe
00000240: e74d 2b3e 73b0 923d d512 e43d 164b 0bbd
00000250: 7066 243f 90bc febe 4cec 40bc 9247 573d
00000260: b226 2f3e 8728 19bf 0ba9 1c3e edc3 333e
00000270: 88fa 613e 02f1 353e 6461 033e dd03 edbd
00000280: b87b b33c c1a5 8a3d 0292 3c3c 4a2c 3fbc
00000290: a49e 73bd 72e5 6c3c dacf d53b 4224 2e3d
000002a0: 2ab1 af3c c554 573d a372 bb3d 2d90 a13a
000002b0: 1bdd 223b c9d8 363c bfcb 3a3d 1a2f f3be
000002c0: f782 d0be 1f78 98be 6f56 a6be 80a0 d1be
000002d0: 0478 003f f1c5 103f 4894 bd3e f487 973e
000002e0: bf8c d23e 6797 64bc 07bb 1dbd 3d6e e1bc
000002f0: 3656 52bb d9ca 9fbc cc2f ff3b 8624 13bc
00000300: 1826 793b 2a7e 803b f352 2037 9a15 c8bc
00000310: 6ae3 883c f18a f53c e950 733c 4217 c23d
00000320: 467e 82be b7fe c3bd 920c 083e c4fc cdbc
00000330: 8c11 483d 018f c53c ed62 613c 5805 e83c
00000340: 30db 663d 1a55 2c3d 558b 8b3e 2905 503d
00000350: bcbb cebd a710 883d 27fb 3a3e 6f50 413e
00000360: 44af d33d 2ac9 563c 777d 9f3d 5149 ac3d
00000370: 1483 eebe bb15 2abe 22e6 213d 193e 17be
00000380: b43e 3fbe 6415 23bf 51ed 45be 452a f63a
00000390: c15d 8bbe e13d 73be c9a5 32bf c7cb 76be
000003a0: eaf2 0f3e d004 69be 4a39 5abb ef07 c0be
000003b0: b195 93be abda bdbd 33cf 803d 8904 e2be
000003c0: 4d74 b8bd d13a 2ebe 42d6 07be af4d 54be
000003d0: 0ba9 3cbd 53c0 d2bc c54a 903d fe73 a43c
000003e0: 36ad f53d d00f a23d e957 cebc 36f9 4dbb
000003f0: 5076 9b3c 0fb4 15be aa93 20be a184 28bd

bias f4 [128]
-0.033781447 -0.15440556 -0.15425381 -0.020496275 0.11377706 -0.1053012 0.051569797 0.09139388
-0.1161324 0.06706604 0.029738257 -0.14613013 -0.003352797 -0.14897372 0.1380267 0.073546596
0.05935105 0.123050675 0.12051704 0.15601481 0.06409557 -0.11348623 0.14656775 0.042617965
-0.06150627 -0.05940445 0.14816158 0.035277545 0.11532699 0.0116163455 0.14538057 -0.11562466
0.03818401 0.038505312 -0.0023555767 0.14311886 0.031655762 0.009734231 0.11031481 -0.0142519465
-0.007833179 -0.12996918 -0.0012475033 -0.07351269 0.09113108 0.1393346 -0.14663644 -0.09159903
0.15260176 -0.068019465 0.14126384 0.15658395 -0.03903298 -0.12755822 0.07832588 0.073371574
0.13784252 0.021417234 0.08645974 -0.13590004 0.020731634 0.03739604 0.100098364 -0.083934285
-0.018599173 -0.09391322 -0.106605396 0.06590831 0.02482773 0.06292466 -0.002942346 -0.002875524
-0.007174431 0.08545834 -0.107811734 0.034448657 0.08655652 0.091909334 -0.07588176 0.12155003
-0.10428869 0.08442774 0.12887846 0.00539923 0.049546827 -0.15012595 -0.06253822 -0.06188944
-0.14665836 -0.03352691 0.10985252 -0.01637565 0.15296215 -0.14250064 0.062707 0.13571027
0.15453893 -0.05966983 -0.14315566 -0.05681514 0.11779174 0.013283507 0.15147285 -0.11507523
-0.097610064 0.08116476 0.05376369 -0.10264207 0.14643934 -0.061438795 -0.13065863 0.04299395
-0.0891533 -0.07393837 -0.08730141 0.042717155 0.07378157 0.10643232 -0.08958357 -0.03637745
0.14796305 -0.080408335 -0.05315087 -0.030415904 -0.14021644 -0.11754693 0.1415863 0.029923907
00000000: 6a5e 0abd 7e1c 1ebe b6f4 1dbe cee7 a7bc
00000010: f203 e93d 28a8 d7bd da3a 533d b72c bb3d
00000020: d3d6 edbd ec59 893d a59d f33c 23a3 15be
00000030: 99ba 5bbb 918c 18be df56 0d3e 999f 963d
00000040: 161a 733d fe01 fc3d a3d1 f63d 59c2 1f3e
00000050: 8a44 833d 786b e8bd db15 163e 2d90 2e3d
00000060: 00ee 7bbd 1552 73bd abb7 173e 307f 103d
00000070: 8f30 ec3d 7c52 3e3c a5de 143e 9fcc ecbd
00000080: d666 1c3d bfb7 1d3d 0560 1abb c08d 123e
00000090: 79a9 013d 537c 1f3c bbec e13d ff80 69bc
000000a0: bc56 00bc a416 05be 4483 a3ba d28d 96bd
000000b0: efa2 ba3d bbad 0e3e dd27 16be 4698 bbbd
000000c0: a343 1c3e ca4d 8bbd 78a7 103e 8b57 203e
000000d0: 0ce1 1fbd 9f9e 02be 5269 a03d d643 963d
000000e0: 9726 0d3e 3273 af3c ce11 b13d 6129 0bbe
000000f0: 63d5 a93c 972c 193d 5f00 cd3d bde5 abbd
00000100: 4b5d 98bc 9355 c0bd ee53 dabd f0fa 863d
00000110: 8663 cb3c a5de 803d 60d4 40bb 4a73 3cbb
00000120: 7d17 ebbb c804 af3d 66cc dcbd 091a 0d3d
00000130: 8b44 b13d f63a bc3d e567 9bbd 39ef f83d
00000140: 4f95 d5bd 73e8 ac3d b7f8 033e 06ec b03b
00000150: 9df1 4a3d 9eba 19be 0a14 80bd c87f 7dbd
00000160: 9c2d 16be 8353 09bd 5cfa e03d 3a26 86bc
00000170: 1ca2 1c3e b0eb 11be 876c 803d a2f7 0a3e
00000180: 743f 1e3e 5a68 74bd 6697 12be feb6 68bd
00000190: cc3c f13d 11a3 593c b31b 1b3e 90ac ebbd
000001a0: c9e7 c7bd b639 a63d 5137 5c3d 0136 d2bd
000001b0: 32f4 153e 3fa7 7bbd 60cb 05be 6d1a 303d
000001c0: 0196 b6bd 006d 97bd 15cb b2bd 2ff8 2e3d
000001d0: cb1a 973d 30f9 d93d 9777 b7bd 8500 15bd
000001e0: a083 173e 20ad a4bd bab4 59bd c62a f9bc
000001f0: e694 0fbe 72bc f0bd 00fc 103e fb22 f53c

weight f4 [128]
0.90298223 0.78245634 0.86630183 0.8509225 1.0929259 0.7649777 0.86069405 0.85415304
1.0440811 0.90269995 0.88098407 1.0504676 1.2066756 0.7161638 0.853485 0.88978624
0.8344253 0.8685581 0.939018 0.9190411 0.8544687 1.1977577 1.2344289 1.0977678
1.1044111 0.90383774 0.89248484 0.74996215 0.9891141 0.79286665 0.98467225 0.7822547
1.1276181 0.7599868 0.94712704 1.444336 0.8725994 0.92361504 1.1219255 1.2512816
0.9637123 0.8230456 0.69640774 0.93996644 1.2020957 0.7634135 1.046362 0.78637695
0.73031944 0.97224003 0.9270599 1.1025555 0.7493095 1.05758 1.0016843 1.4565473
1.1519097 0.8867388 1.0492917 1.5563098 0.7456208 0.8130418 1.1066512 0.9627884
1.2313672 0.8198362 0.8702469 0.62884104 0.90643847 1.066961 0.83154315 0.93117976
1.3533943 0.63703537 0.9900221 0.7131702 0.8731497 0.71504194 1.1040567 1.4735833
0.8155178 1.4070046 1.0159672 0.73519486 0.77676845 1.0974407 0.8535377 0.79437375
0.80796593 1.0143466 0.93792415 0.7932503 1.0137457 1.0277662 0.85929084 0.79282486
1.1184462 1.2187206 0.68223953 1.0523229 0.98870796 0.6703232 0.8932103 0.83319414
0.92724645 1.0365193 1.1185554 0.8920331 1.1220433 0.99651027 0.8412151 0.88290185
0.8953196 0.6765418 0.9905341 0.8141225 0.78289473 1.0522194 0.7651001 0.9685721
1.058669 0.9331017 1.5972352 0.9019325 0.95810676 0.82802343 0.8682647 0.9618907
00000000: d829 673f 0f4f 483f f5c5 5d3f 0fd6 593f
00000010: ffe4 8b3f 94d5 433f 7256 5c3f c6a9 5a3f
00000020: 73a4 853f 5817 673f 2c88 613f b975 863f
00000030: 5974 9a3f 8356 373f fe7d 5a3f 08c9 633f
00000040: e59c 553f d359 5e3f 7c63 703f 4746 6b3f
00000050: 76be 5a3f 2050 993f c401 9e3f a883 8c3f
00000060: 585d 8d3f e961 673f e379 643f 85fd 3f3f
00000070: 9536 7d3f 4ff9 4a3f 7b13 7c3f d841 483f
00000080: ca55 903f 7f8e 423f eb76 723f 01e0 b83f
00000090: ad62 5f3f 0972 6c3f 419b 8f3f ff29 a03f
000000a0: d9b5 763f 1eb3 523f c747 323f a4a1 703f
000000b0: 46de 993f 116f 433f 31ef 853f 0050 493f
000000c0: 37f6 3a3f b9e4 783f cc53 6d3f 8a20 8d3f
000000d0: bfd2 3f3f c85e 873f 3137 803f 2470 ba3f
000000e0: c771 933f 5001 633f 314f 863f 2935 c73f
000000f0: 01e1 3e3f 8223 503f bfa6 8d3f 4d79 763f
00000100: 719d 9d3f c9e0 513f 80c8 5e3f bafb 203f
00000110: 5a0c 683f 2e92 883f 03e0 543f cc61 6e3f
00000120: 063c ad3f c014 233f 1772 7d3f 5292 363f
00000130: bd86 5f3f fd0c 373f bb51 8d3f 619e bc3f
00000140: c6c5 503f ba18 b43f 370b 823f bb35 3c3f
00000150: 4cda 463f f078 8c3f 7281 5a3f 145c 4b3f
00000160: dbd6 4e3f 1cd6 813f cc1b 703f 7412 4b3f
00000170: 6bc2 813f d88d 833f 7cfa 5b3f 92f6 4a3f
00000180: 3f29 8f3f 09ff 9b3f 40a7 2e3f 84b2 863f
00000190: f71b 7d3f 4d9a 2b3f 6ea9 643f 364c 553f
000001a0: 0660 6d3f aaac 843f d32c 8f3f 485c 643f
000001b0: 1d9f 8f3f 4c1b 7f3f df59 573f db05 623f
000001c0: aa33 653f d831 2d3f a593 7d3f 556a 503f
000001d0: ca6b 483f 20af 863f 9add 433f 57f4 773f
000001e0: 7782 873f c1df 6e3f 3472 cc3f 0ce5 663f
000001f0: 7c46 753f 58f9 533f 9846 5e3f 783e 763f

bias f4 [128]
-0.28784567 -0.25619668 -0.044735637 -0.5272453 -0.29510748 -0.041764997 -0.3077177 -0.096966594
-0.5026803 -0.100014344 -0.132922 -0.33875644 -0.09397124 -0.08752676 -0.49351332 -0.14475234
-0.21480711 -0.11156654 -0.036189727 -0.1062779 -0.25350195 -0.26789883 -0.48770234 -0.13255727
-0.607004 -0.22201571 -0.18380804 -0.24936675 -0.05878934 -0.12621139 -0.105111375 -0.15382712
-0.5862051 -0.16433556 -0.19381884 -0.24440989 -0.076180294 -0.6711856 -0.22888975 -0.30395472
-0.14782082 -0.2917865 -0.23849073 -0.17160282 -0.7023954 -0.0055304095 -0.16009094 -0.35083544
-0.14969479 -0.32768315 -0.07438996 -0.076285236 -0.2633604 -0.12331392 -0.11218124 -0.19733082
-0.23447105 -0.23746186 -0.30696958 -0.38627243 -0.1527805 -0.088297926 -0.09967804 -0.5245801
-0.14250597 -0.086517096 -0.37411258 -0.1237055 -0.29818258 -1.0064944 -0.32566306 -0.66517556
-0.26452658 -0.07082511 -0.1106519 -0.05077918 -0.054129664 -0.16486286 -0.25410345 -0.1663075
-0.13786793 -0.16717388 -0.08548967 -0.4108007 -0.048796214 -0.74505645 -0.28925863 -0.20101921
-0.0030543592 -0.16079281 -0.09576774 -0.04542995 -0.17528221 -0.089066826 -0.06942661 -0.08304616
-0.17113738 -0.11981177 -0.058662497 -0.42418998 -0.11697771 -0.04715482 -0.5024155 -0.099658735
-0.16887243 -0.4782681 -0.1874877 -0.19735885 -0.31180525 -0.1869214 -0.0089037055 -0.091513894
-0.11958753 -0.017616829 -0.078318276 -0.08175619 -0.1265486 -0.9786315 -0.19910857 -0.14295463
-0.101276875 -0.09580639 -0.33439612 -0.1421673 -0.7135064 -0.25124887 -0.095748805 -0.03688751
00000000: 8260 93be 362c 83be b73c 37bd 8cf9 06bf
00000010: 5418 97be c611 2bbd 2d8d 9dbe 6c96 c6bd
00000020: a8af 00bf 52d4 ccbd b41c 08be 7c71 adbe
00000030: fe73 c0bd 3b41 b3bd c7ad fcbe f539 14be
00000040: 65f6 5bbe 007d e4bd ae3b 14bd 3aa8 d9bd
00000050: 02cb 81be 092a 89be 1fb4 f9be 18bd 07be
00000060: 9d64 1bbf 1658 63be 2d38 3cbe ff59 7fbe
00000070: 17cd 70bd 8f3d 01be a244 d7bd db84 1dbe
00000080: 8a11 16bf 9547 28be 7278 46be 9646 7abe
00000090: 6a04 9cbd d2d2 2bbf 1362 6abe f49f 9bbe
000000a0: 575e 17be 0a65 95be ea36 74be a6b8 2fbe
000000b0: 2fd0 33bf 7038 b5bb e1ee 23be b4a0 b3be
000000c0: 9749 19be 16c6 a7be c359 98bd 6f3b 9cbd
000000d0: 2dd7 86be 028c fcbd 47bf e5bd 1711 4abe
000000e0: 2e19 70be 3429 73be 1e2b 9dbe 80c5 c5be
000000f0: 7e72 1cbe 8bd5 b4bd 0024 ccbd e24a 06bf
00000100: 16ed 11be e02f b1bd af8b bfbe 4f59 fdbd
00000110: 63ab 98be cfd4 80bf 4fbd a6be f248 2abf
00000120: 0770 87be c10c 91bd 779d e2bd d4fd 4fbd
00000130: 11b7 5dbd cfd1 28be d919 82be 834c 2abe
00000140: 402d 0dbe a12f 2bbe 3515 afbd 7854 d2be
00000150: 8ade 47bd 05bc 3ebf b519 94be fbd7 4dbe
00000160: a52b 48bb dfa6 24be e021 c4bd c114 3abd
00000170: 2e7d 33be ab68 b6bd 8a2f 8ebd 1b14 aabd
00000180: a33e 2fbe e05f f5bd 1648 70bd 6e2f d9be
00000190: 0292 efbd 6a25 41bd 4d9e 00bf e119 ccbd
000001a0: e5ec 2cbe 8edf f4be c7fc 3fbe 7018 4abe
000001b0: f0a4 9fbe 5368 3fbe d9e0 11bc a36b bbbd
000001c0: 4fea f4bd 2b51 90bc 5565 a0bd ca6f a7bd
000001d0: f595 01be 9887 7abf 1ee3 4bbe b362 12be
000001e0: 406a cfbd 2436 c4bd f835 abbe 4e94 11be
000001f0: 5ba8 36bf b1a3 80be f317 c4bd 5c17 17bd

running_mean f4 [128]
-0.33914253 -1.8982556 0.1716869 -0.1530922 -0.6532076 2.994427 1.14495 2.9326634
-0.35395727 -0.3733445 0.70354915 0.014355258 -0.3752831 -0.5414186 1.5054924 -1.682826
-0.1995389 0.8495896 -1.4079846 -0.17534238 3.3979995 0.16934827 -1.3748002 -0.28385863
0.16136163 -1.7159827 0.44947115 0.08323414 -0.3355647 0.3730559 0.54024464 0.63389355
0.21217237 -0.79286224 -0.27652135 -1.2743777 0.8658959 1.1632953 0.64316034 -0.67292047
1.9011811 0.44263414 -0.8941688 -4.839241 0.8934639 -3.833959 0.42397395 -0.5813282
0.039980806 0.787415 0.81099194 0.8360248 -0.03825444 -2.3933613 -0.40143383 2.129322
-0.26095846 4.8238397 -1.1592306 0.9276292 0.9004313 -3.9491456 -0.4265056 -3.0156643
-1.094132 1.9982228 0.29146105 -0.11756363 -3.375842 2.1463337 0.11593219 -2.1654956
1.762145 -0.6958433 -0.43119663 1.4143444 -1.8123333 0.21217307 -0.43654835 -1.4734826
-1.2460754 1.331234 0.83428836 -0.3204486 1.339814 -0.3906251 0.49862698 1.4944516
4.464074 -1.3963336 -1.9209445 2.7247958 -0.49415392 -0.9560383 -0.231688 0.42607874
-0.72755027 -0.6377033 -1.4212632 -1.188871 2.6484845 -2.851056 -0.11676255 2.261661
-0.9345735 1.2648335 -0.71699226 3.3037262 -0.012755151 -0.84452486 3.558922 1.0908478
0.21715055 -2.88859 -0.20826402 2.1588094 0.38722637 -1.7899957 1.3940133 3.044517
-0.9860382 0.18600616 1.6381824 0.14597377 1.1923691 -0.016149329 1.8213377 -1.63573
00000000: 17a4 adbe 0afa f2bf b1ce 2f3e 34c4 1cbe
00000010: 9d38 27bf b1a4 3f40 b98d 923f c2b0 3b40
00000020: e339 b5be 0327 bfbe cc1b 343f 5132 6b3c
00000030: 1b25 c0be 699a 0abf fab3 c03f d866 d7bf
00000040: ed53 4cbe b47e 593f d738 b4bf f48c 33be
00000050: d378 5940 a269 2d3e 74f9 afbf eb55 91be
00000060: fc3b 253e 52a5 dbbf 1521 e63e a976 aa3d
00000070: 23cf abbe 2f01 bf3e 794d 0a3f d946 223f
00000080: b743 593e 05f9 4abf 3594 8dbe cf1e a3bf
00000090: 5bab 5d3f dce6 943f 28a6 243f 8444 2cbf
000000a0: e759 f33f f1a0 e23e 3fe8 64bf 10db 9ac0
000000b0: 0dba 643f 965f 75c0 1d13 d93e edd1 14bf
000000c0: eac2 233d 0894 493f 2b9d 4f3f b905 563f
000000d0: b0b0 1cbd d52c 19c0 bc88 cdbe d046 0840
000000e0: 599c 85be e55c 9a40 ab61 94bf 1b79 6d3f
000000f0: aa82 663f cdbe 7cc0 f15e dabe a500 41c0
00000100: 840c 8cbf c4c5 ff3f 623a 953e 33c5 f0bd
00000110: cc0d 58c0 885d 0940 db6d ed3d 7b97 0ac0
00000120: f88d e13f c922 32bf cec5 dcbe 3d09 b53f
00000130: 8afa e7bf e643 593e 4483 dfbe 149b bcbf
00000140: 667f 9fbf e065 aa3f ec93 553f d711 a4be
00000150: 067f ab3f 0300 c8be 094c ff3e 314a bf3f
00000160: b2d9 8e40 0fbb b2bf 82e1 f5bf 0e63 2e40
00000170: be01 fdbe edbe 74bf 9e3f 6dbe fe26 da3e
00000180: bc40 3abf 8640 23bf f4eb b5bf ed2c 98bf
00000190: c580 2940 b477 36c0 3421 efbd 0ebf 1040
000001a0: 3540 6fbf 10e6 a13f ce8c 37bf 4070 5340
000001b0: fbfa 50bc c832 58bf 61c5 6340 e7a0 8b3f
000001c0: b75c 5e3e a9de 38c0 2a43 55be ef29 0a40
000001d0: 8942 c63e 941e e5bf 076f b23f 5ed9 4240
000001e0: 006d 7cbf 6678 3e3e f6af d13f 267a 153e
000001f0: 8d9f 983f 994b 84bc 9821 e93f 9a5f d1bf

running_var f4 [128]
305.7852 246.7389 870.3585 212.30489 149.20647 408.09842 160.7387 320.25687
165.73799 526.4481 376.43298 128.05252 864.7041 216.91782 250.8622 398.38568
355.60522 500.41797 830.2126 183.42967 291.44412 141.58163 181.70596 511.53784
196.46094 516.6452 244.66655 181.8162 995.1643 150.02104 274.14636 203.12427
212.15578 367.81784 432.27948 257.44937 417.62964 267.14117 470.09985 97.913994
372.2628 208.85995 315.75 313.74713 151.24998 356.94992 206.37732 359.60492
334.8636 231.20209 885.812 722.7645 180.80518 425.68375 292.1359 489.97864
207.4557 309.10645 181.20201 191.64743 202.9331 290.194 429.89267 283.46594
290.52182 560.91547 225.65103 321.53806 214.67021 260.62552 160.84819 279.18668
175.44426 203.32272 371.25815 803.37604 549.1093 140.95364 190.83423 419.68976
267.46896 423.1233 603.9887 244.99467 908.1524 200.91861 350.06042 228.57536
311.23846 467.07132 481.26968 287.459 165.56483 513.1126 354.75912 162.8612
223.54143 579.41486 382.01157 263.85422 295.96542 410.82986 206.93489 598.44714
356.39374 142.3903 196.7778 298.49426 84.52045 235.01237 250.12589 485.513
360.6284 475.168 338.90286 615.0726 224.71274 378.43185 476.19748 620.0511
668.7587 239.316 219.69623 282.25803 251.42984 288.231 630.80084 1441.5591
00000000: 81e4 9843 29bd 7643 f296 5944 0d4e 5443
00000010: db34 1543 990c cc43 1bbd 2043 e120 a043
00000020: edbc 2543 ae9c 0344 6c37 bc43 720d 0043
00000030: 102d 5844 f6ea 5843 b9dc 7a43 5e31 c743
00000040: 78cd b143 8035 fa43 9b8d 4f44 ff6d 3743
00000050: d9b8 9143 e694 0d43 bab4 3543 d8c4 ff43
00000060: 0076 4443 4b29 0144 a3aa 7443 f2d0 3543
00000070: 84ca 7844 6305 1643 bc12 8943 d01f 4b43
00000080: e127 5443 afe8 b743 c623 d843 85b9 8043
00000090: 98d0 d043 1292 8543 c80c eb43 f7d3 c342
000000a0: a321 ba43 26dc 5043 00e0 9d43 a2df 9c43
000000b0: ff3f 1743 9779 b243 9860 4e43 6ecd b343
000000c0: 8a6e a743 bc33 6743 f873 5d44 eeb0 3444
000000d0: 20ce 3443 85d7 d443 6511 9243 44fd f443
000000e0: a974 4f43 a08d 9a43 b733 3543 bea5 3f43
000000f0: e0ee 4a43 d518 9143 43f2 d643 a4bb 8d43
00000100: cb42 9143 973a 0c44 aaa6 6143 dfc4 a043
00000110: 93ab 5643 1150 8243 23d9 2043 e597 8b43
00000120: bb71 2f43 9e52 4b43 0ba1 b943 11d8 4844
00000130: ff46 0944 22f4 0c43 90d5 3e43 4ad8 d143
00000140: 07bc 8543 c88f d343 47ff 1644 a3fe 7443
00000150: c109 6344 2aeb 4843 bc07 af43 4b93 6443
00000160: 869e 9b43 2189 e943 85a2 f043 c1ba 8f43
00000170: 9990 2543 3547 0044 2b61 b143 78dc 2243
00000180: 9b8a 5f43 8dda 1044 7b01 bf43 57ed 8343
00000190: 93fb 9343 396a cd43 55ef 4e43 9e9c 1544
000001a0: 6632 b243 eb63 0e43 1ec7 4443 443f 9543
000001b0: 780a a942 2b03 6b43 3a20 7a43 aac1 f243
000001c0: 6f50 b443 8195 ed43 9173 a943 a5c4 1944
000001d0: 76b6 6043 4737 bd43 4719 ee43 4503 1b44
000001e0: 8f30 2744 e550 6f43 3cb2 5b43 0721 8d43
000001f0: 0a6e 7b43 911d 9043 41b3 1d44 e431 b444

weight f4 [64, 128, 3]
0.10655645 -0.11961343 0.072419 -0.026353857 -0.0048991595 0.13693063 -0.019198922 0.022591252
-0.06463999 -0.03274818 -0.20539926 -0.13734883 0.15010822 0.13394554 -0.004619226 0.26560402
-0.053294953 0.19869304 0.09148949 0.052885745 -0.11266989 0.13593155 -0.06448626 -0.043140456
-0.054359823 -0.06631614 -0.1190031 0.099665046 -0.04710295 0.00027186767 0.033432078 -0.061010554
0.16290626 0.117700525 0.14453994 0.16083868 0.14030667 0.30657578 0.30632433 -0.05693257
0.031255476 0.0517281 0.032685306 -0.029435918 0.032392528 0.004807268 0.065530926 0.15139705
-0.07798565 0.05090907 -0.17577682 0.07583078 0.0051754415 -0.007402225 0.08716188 0.015996274
0.007868881 0.07854467 0.04717036 -0.074548274 0.51594234 0.37268862 0.39625388 0.20011209
0.08956039 0.16752198 -0.72623736 -0.3414689 -0.1957579 -0.09812538 0.01876849 0.07251409
0.042251337 -0.038247522 0.048597474 -0.024084212 -0.062056217 -0.021853527 -0.03950548 -0.03441292
-0.124414966 -0.09202425 0.13277143 -0.10558428 -0.040483642 -0.043979727 -0.053060833 0.06976879
-0.053030826 0.010693399 0.113569245 -0.033027988 -0.027570466 0.1854537 0.14169787 -0.113487795
0.1343819 0.064015076 0.03251036 0.10393096 0.17662352 0.010224862 0.012677492 -0.07630229
-0.06253121 -1.0468398 -0.6179673 -0.59730357 -0.24221061 -0.32932562 -0.37926355 0.07895145
-0.16540265 0.06882403 -0.01307692 -0.015339641 -0.048414454 0.23089842 0.1851892 0.21047115
0.02257723 -0.0023553257 -0.014517679 -0.004974774 -0.12823062 -0.12624088 -0.081131786 -0.0081355125
-0.19386823 0.14819758 0.11985518 0.21718596 -0.29528192 -0.11183936 -0.22402687 -0.047255844
-0.036718965 -0.037506994 0.21725102 0.14072983 0.035782192 -0.0627924 0.20972908 0.08279088
-0.07109174 -0.05448341 -0.18325244 0.21816932 0.09989191 0.108731486 0.08335739 0.044714466
-0.05291969 -0.71373034 -0.7544347 -0.70810395 -0.019063804 0.035801344 -0.032941666 0.42308676
0.23991106 0.4136049 0.010889086 0.07058379 0.084188454 -0.32197773 -0.24981527 0.13013767
0.050439112 -0.066708386 0.013140981 -0.036120225 -0.09707178 0.08880288 0.32605553 0.11093768
0.17591335 -0.4008086 -0.4154051 -0.49648756 -0.18273267 -0.015683357 -0.12766485 0.046735045
-0.09406441 -0.17396142 -0.4658181 -0.60349864 -0.66820127 0.23682155 0.3078947 0.22035189
-0.31374177 -0.6428042 -0.5239158 -0.03405203 -0.11058903 -0.18352711 0.10227278 -0.16112533
0.081086874 0.22217466 0.05390258 0.008708991 -0.021000495 0.08553836 0.14108111 -0.03568229
-0.26273197 0.0011380457 0.16566458 0.25175303 0.1409738 -0.031624474 0.0034258086 -0.15742756
-0.33033034 -0.4029749 -0.25664786 -0.09925466 0.020141946 0.02385198 -0.23755018 -0.35443783
-0.32074633 -0.004713543 -0.015247733 -0.17830253 0.11194537 0.15262325 0.076373085 0.23307201
0.0991799 0.12863538 0.14038147 -0.017896872 -0.111292206 -0.17866795 -0.21274422 -0.12285949
0.2151254 -0.0123826265 -0.01948532 -0.87973565 -0.7981405 -0.85663044 0.02002222 0.03403976
-0.07512183 -0.12818377 -0.15437399 0.060928293 -0.010728629 -0.026127191 -0.072790466 0.29011086
00000000: 453a da3d e3f7 f4bd 6a50 943d 0be4 d7bc
00000010: 2189 a0bb 8b37 0c3e 0f47 9dbc 4a11 b93c
00000020: f961 84bd f522 06bd 2f54 52be 2ca5 0cbe
00000030: f8b5 193e 0529 093e e05c 97bb 40fd 873e
00000040: cf4b 5abd 3076 4b3e d75e bb3d b99e 583d
00000050: 79bf e6bd a431 0b3e 5f11 84bd 0cb4 30bd
00000060: 68a8 5ebd c2d0 87bd e6b7 f3bd 301d cc3d
00000070: 06ef 40bd 7689 8e39 13f0 083d 34e6 79bd
00000080: e6d0 263e f90c f13d 4702 143e e5b2 243e
00000090: 8dac 0f3e 80f7 9c3e 8bd6 9c3e 2032 69bd
000000a0: be05 003d d8e0 533d 07e1 053d 9823 f1bc
000000b0: 07ae 043d 4986 9d3b 1435 863d d407 1b3e
000000c0: f1b6 9fbd 0786 503d d7fe 33be 2b4d 9b3d
000000d0: c096 a93b 5d8e f2bb ee81 b23d 9e0a 833c
000000e0: 7bec 003c 07dc a03d b535 413d c4ac 98bd
000000f0: cc14 043f 0bd1 be3e cae1 ca3e 2fea 4c3e
00000100: 706b b73d e28a 2b3e b1ea 39bf 03d5 aebe
00000110: c274 48be f6f5 c8bd 60c0 993c 4482 943d
00000120: bd0f 2d3d 6fa9 1cbd 250e 473d 414c c5bc
00000130: a92e 7ebd 2b06 b3bc 80d0 21bd 90f4 0cbd
00000140: 46cd febd 3677 bcbd 3cf5 073e 923c d8bd
00000150: 2dd2 25bd 1624 34bd 5156 59bd f0e2 8e3d
00000160: da36 59bd 5e33 2f3c fe96 e83d 5b48 07bd
00000170: 75db e1bc 93e7 3d3e 3f19 113e 4a6c e8bd
00000180: 699b 093e 561a 833d 9529 053d c1d9 d43d
00000190: ccdc 343e 2e86 273c 41b5 4f3c 6044 9cbd
000001a0: 5d10 80bd d9fe 85bf 1b33 1ebf e3e8 18bf
000001b0: 0f06 78be 5e9d a8be d52e c2be 4cb1 a13d
000001c0: 505f 29be 9df3 8c3d 9440 56bc 1e53 7bbc
000001d0: 3c4e 46bd a370 6c3e 3da2 3d3e c085 573e
000001e0: e2f3 b83c cf5b 1abb 8fdb 6dbc 6e03 a3bb
000001f0: e34e 03be 4a45 01be 6c28 a6bd d04a 05bc
00000200: 6585 46be 1bc1 173e a276 f53d ff65 5e3e
00000210: 312f 97be 090c e5bd 4d67 65be 588f 41bd
00000220: a066 16bd efa0 19bd 0d77 5e3e 7b1b 103e
00000230: 5990 123d 4d99 80bd 38c3 563e 448e a93d
00000240: 8c98 91bd ff29 5fbd 87a6 3bbe c767 5f3e
00000250: 2194 cc3d 9dae de3d 47b7 aa3d 8426 373d
00000260: 51c2 58bd 08b7 36bf a222 41bf 4d46 35bf
00000270: b22b 9cbc 6ea4 123d d7ed 06bd d49e d83e
00000280: 3fab 753e 05c4 d33e 2368 323c 3c8e 903d
00000290: ff6a ac3d 44da a4be 93cf 7fbe cf42 053e
000002a0: 3e99 4e3d 689e 88bd 454d 573c cdf2 13bd
000002b0: 92cd c6bd 49de b53d c0f0 a63e 4b33 e33d
000002c0: a122 343e c936 cdbe faaf d4be 9e33 febe
000002d0: 461e 3bbe 627a 80bc 93ba 02be 3f6d 3f3d
000002e0: d7a4 c0bd f122 32be b67f eebe e37e 1abf
000002f0: 3d0f 2bbf 5981 723e 60a4 9d3e eda3 613e
00000300: c3a2 a0be d18e 24bf 591f 06bf 247a 0bbd
00000310: 807c e2bd 88ee 3bbe 6474 d13d 0afe 24be
00000320: e010 a63d c181 633e f4c8 5c3d 28b0 0e3c
00000330: 3b09 acbc bc2e af3d 9177 103e 9827 12bd
00000340: ce84 86be 7a2a 953a faa3 293e c6e5 803e
00000350: 705b 103e aa88 01bd 8883 603b b134 21be
00000360: 0f21 a9be ba52 cebe 5967 83be 0746 cbbd
00000370: b900 a53c 3a65 c33c 5b40 73be e078 b5be
00000380: dd38 a4be 1174 9abb a1d1 79bc f094 36be
00000390: 9d43 e53d 4549 1c3e 7e69 9c3d 6eaa 6e3e
000003a0: d51e cb3d feb8 033e 29c0 0f3e 769c 92bc
000003b0: 2bed e3bd bbf4 36be 9fd9 59be c29d fbbd
000003c0: d549 5c3e 80e0 4abc ae9f 9fbc 5b36 61bf
000003d0: f052 4cbf 224c 5bbf a405 a43c 466d 0b3d
000003e0: 79d9 99bd 9b42 03be 3714 1ebe f28f 793d
000003f0: 22c7 2fbc b108 d6bc 2b13 95bd 6989 943e

bias f4 [64]
-0.0156047195 -0.011846968 0.017908389 -0.010915129 -0.011341326 -0.035255924 -0.024494877 -0.045996822
0.048821308 -0.0038697734 -0.038702756 0.04094577 0.0062650456 -0.012425712 -0.01277885 -0.00074698747
-0.043119326 0.018210817 -0.02853527 0.0027873248 0.028801616 0.031422567 0.049396776 0.027031207
0.04381675 -0.009885094 -0.05308049 0.01889108 0.006635939 -0.035477526 -0.035175417 0.023308903
0.021175724 0.052442387 0.030974528 -0.037109643 0.0040124827 0.041625652 0.011339988 0.025167955
0.0127918525 0.024960289 0.005228306 -0.026208576 -0.020189166 0.04111247 0.0044651674 0.019286841
0.051156037 -0.011952351 0.031022027 -0.050777793 0.04297424 -0.032889847 0.023239508 0.022315552
-0.02191884 0.046643026 -0.0011735833 0.035041627 0.035850756 -0.018709198 -0.029523239 0.0026651972
00000000: f0aa 7fbc c919 42bc 9db4 923c 5fd5 32bc
00000010: f8d0 39bc 8468 10bd 7ba9 c8bc 2a67 3cbd
00000020: daf8 473d 069c 7dbb c886 1ebd c0b6 273d
00000030: 034b cd3b 3795 4bbc 625e 51bc 7bd1 43ba
00000040: e49d 30bd da2e 953c ccc2 e9bc 8dab 363b
00000050: 5ef1 eb3c f3b4 003d 4654 4a3d 8d70 dd3c
00000060: 3179 333d 17f5 21bc ee6a 59bd 77c1 9a3c
00000070: 4a72 d93b e250 11bd 1914 10bd 50f2 be3c
00000080: b678 ad3c d4cd 563d 4bbe fd3c 4800 18bd
00000090: 257b 833b a97f 2a3d 5bcb 393c 072d ce3c
000000a0: eb94 513c 8579 cc3c 3652 ab3b 5eb3 d6bc
000000b0: c063 a5bc 8d65 283d 8a50 923b 70ff 9d3c
000000c0: fe88 513d cbd3 43bc e821 fe3c 60fc 4fbd
000000d0: c205 303d 81b7 06bd c860 be3c 1bcf b63c
000000e0: 248f b3bc c20c 3f3d ecd2 99ba cf87 0f3d
000000f0: 3ed8 123d 0844 99bc b8da f1bc 97aa 2e3b

weight f4 [64]
0.8900721 1.255438 1.081224 0.2567262 0.34420657 0.9802509 1.1783259 0.8277773
0.94483197 0.26257885 1.2023096 0.63679373 1.1511765 1.080988 0.9899418 0.541554
0.8848535 1.1544968 1.0982927 0.30789387 0.809791 1.0429721 0.4054138 0.7895835
1.162134 0.6596179 0.9691915 0.8648966 0.91131574 0.51252544 0.54419136 1.1154517
0.8035337 0.74317014 0.75765055 1.114879 1.2363825 0.9424275 0.47231653 1.032439
1.1366597 1.2859956 0.857749 1.1424214 0.8728772 1.1964861 0.8377592 0.6501064
0.9445995 0.6680346 0.7809295 0.38989606 1.2724446 1.0967735 0.9568611 1.1077571
0.99188817 0.8863785 0.7454662 1.083851 0.37031382 1.1687063 0.9428261 1.0432545
00000000: c4db 633f 31b2 a03f 8c65 8a3f 9e71 833e
00000010: d83b b03e b9f1 7a3f 62d3 963f 37e9 533f
00000020: 82e0 713f bc70 863e 48e5 993f ea04 233f
00000030: c059 933f d15d 8a3f d36c 7d3f 48a3 0a3f
00000040: c285 623f 8dc6 933f db94 8c3f 44a4 9d3e
00000050: 774e 4f3f 1c80 853f 6692 cf3e 2522 4a3f
00000060: cfc0 943f b8dc 283f ef1c 783f dd69 5d3f
00000070: fd4b 693f de34 033f 2050 0b3f 1fc7 8e3f
00000080: 62b4 4d3f 6640 3e3f 63f5 413f 5bb4 8e3f
00000090: c841 9e3f ee42 713f 79d3 f13e f626 843f
000000a0: 117e 913f 819b a43f 7095 5b3f dd3a 923f
000000b0: e174 5f3f 7526 993f 6377 563f 5f6d 263f
000000c0: 46d1 713f 5104 2b3f ffea 473f 75a0 c73e
000000d0: 77df a23f 1363 8c3f d9f4 743f fcca 8d3f
000000e0: 62ec 7d3f b4e9 623f dfd6 3e3f a1bb 8a3f
000000f0: c699 bd3e 2b98 953f 0d5d 713f 5d89 853f

bias f4 [64]
-0.2547429 -0.50803125 -0.4747764 -0.07333511 -0.5605478 -0.39669698 -0.4591034 -0.26226598
-0.30224675 -0.06359598 -0.4014092 -0.19552621 -0.46435013 -0.44458863 -0.38673404 -0.14860182
-0.2415962 -0.48963755 -0.4466109 -0.009640153 -0.28877506 -0.5065641 -0.06395393 -0.25991538
-0.39542398 -0.22690763 -0.30450925 -0.26599205 -0.23835959 -0.5521686 -0.19817594 -0.28746378
-0.3253643 -0.24023438 -0.27807513 -0.45700806 -0.51466364 -0.3233928 -0.18275012 -0.3706578
-0.42490417 -0.35618538 -0.38779727 -0.35839567 -0.29053852 -0.37591603 -0.26588827 -0.31164542
-0.28669557 -0.15894791 -0.2679446 -0.10255798 -0.40633947 -0.3220137 -0.3980204 -0.4247231
-0.35109 -0.38896626 -0.2966511 -0.34077427 -0.09108905 -0.52752525 -0.37616855 -0.39175934
00000000: a96d 82be 560e 02bf e415 f3be b830 96bd
00000010: 1080 0fbf de1b cbbe 9a0f ebbe ba47 86be
00000020: 16c0 9abe 9c3e 82bd 8285 cdbe 0638 48be
00000030: 4dbf edbe 1fa1 e3be 0102 c6be 132b 18be
00000040: ff64 77be c6b1 fabe 2faa e4be bbf1 1dbc
00000050: 53da 93be 2fae 01bf 47fa 82bd a113 85be
00000060: 0375 cabe 795a 68be a3e8 9bbe 1c30 88be
00000070: 8914 74be ec5a 0dbf a2ee 4abe 742e 93be
00000080: 2696 a6be 0000 76be dd5f 8ebe f6fc e9be
00000090: ffc0 03bf be93 a5be d922 3bbe dcc6 bdbe
000000a0: 0a8d d9be ee5d b6be 5d8d c6be a37f b7be
000000b0: 77c1 94be 1178 c0be 8222 88be fd8f 9fbe
000000c0: c3c9 92be 3ec3 22be 0930 89be eb09 d2bd
000000d0: ba0b d0be fbde a4be 54c9 cbbe 4e75 d9be
000000e0: 12c2 b3be 9626 c7be a7e2 97be f779 aebe
000000f0: e58c babd e50b 07bf 2a99 c0be ae94 c8be

running_mean f4 [64]
-3.161508 -5.6047635 -3.950024 2.5204787 1.71778 -4.138843 -5.7394557 -3.5117028
-2.9423864 0.20666668 -5.300926 -2.1504664 -4.2600083 -4.245005 -3.8321288 -1.0231678
-3.8420525 -5.879865 -4.2213783 4.159302 -2.9578128 -4.055507 -1.1333791 -2.2308197
-5.5494647 -2.9527795 -5.157862 -3.6854985 -5.0296125 2.5889175 -1.6799622 -5.317639
-2.6438656 -3.0534751 -2.3932033 -5.1866117 -6.7924733 -3.8813791 -1.3081894 -5.3282995
-4.271221 -6.007514 -3.0298903 -5.8763633 -3.865714 -5.515122 -2.5898438 -2.2135532
-3.577406 -2.13955 -3.1304429 -0.34075165 -6.10587 -4.756913 -3.3055627 -5.461397
-5.226929 -2.7140203 -2.1014464 -5.4339175 -0.6049721 -6.7695146 -4.0310025 -4.493018
00000000: 2656 4ac0 395a b3c0 31cd 7cc0 864f 2140
00000010: 37e0 db3f 6771 84c0 9fa9 b7c0 bdbf 60c0
00000020: 0f50 3cc0 6ea0 533e 30a1 a9c0 3ea1 09c0
00000030: fd51 88c0 15d7 87c0 9941 75c0 2af7 82bf
00000040: 30e4 75c0 db27 bcc0 8815 87c0 0119 8540
00000050: ce4c 3dc0 b7c6 81c0 9112 91bf c0c5 0ec0
00000060: 3795 b1c0 57fa 3cc0 350d a5c0 35df 6bc0
00000070: 96f2 a0c0 d3b0 2540 0009 d7bf 192a aac0
00000080: 1835 29c0 236c 43c0 3e2a 19c0 b9f8 a5c0
00000090: f15b d9c0 8468 78c0 c072 a7bf 6e81 aac0
000000a0: d8ad 88c0 8e3d c0c0 b9e9 41c0 2b0b bcc0
000000b0: dc67 77c0 e17b b0c0 00c0 25c0 dbaa 0dc0
000000c0: 38f4 64c0 63ee 08c0 2d59 48c0 0077 aebe
000000d0: 4963 c3c0 a238 98c0 578e 53c0 c4c3 aec0
000000e0: 0143 a7c0 82b2 2dc0 197e 06c0 a7e2 adc0
000000f0: 74df 1abf dd9f d8c0 f9fd 80c0 cec6 8fc0

running_var f4 [64]
118.96388 119.976364 75.85141 29.765036 20.326622 94.70319 146.77695 57.058952
88.256546 19.51947 94.16707 32.69082 71.74145 80.96144 62.474133 65.93823
88.739006 146.09973 70.4397 61.31504 59.015366 64.570175 34.476086 56.438633
173.29245 45.124165 113.04745 70.815575 101.808395 67.31612 32.95391 221.06627
40.922573 59.13603 47.38952 89.01337 192.86136 92.764244 19.984934 150.0373
124.424835 236.7002 46.65442 253.85777 108.87757 159.75716 74.46888 32.92369
103.44171 55.413605 55.678986 47.219852 326.50186 144.6878 63.46662 136.66437
99.711525 47.28121 32.58232 110.67691 16.039423 175.71106 73.62239 101.27843
00000000: 82ed ed42 e6f3 ef42 ecb3 9742 cb1e ee41
00000010: ec9c a241 0968 bd42 e6c6 1243 5e3c 6442
00000020: 5a83 b042 e027 9c41 8a55 bc42 66c3 0242
00000030: 9f7b 8f42 42ec a142 83e5 7942 60e0 8342
00000040: 5f7a b142 8819 1243 20e1 8c42 9a42 7542
00000050: bc0f 6c42 ee23 8142 83e7 0942 29c1 6142
00000060: de4a 2d43 257f 3442 4b18 e242 93a1 8d42
00000070: e69d cb42 daa1 8642 ced0 0342 f710 5d43
00000080: b7b0 2342 4b8b 6c42 de8e 3d42 d806 b242
00000090: 82dc 4043 4b87 b942 25e1 9f41 8c09 1643
000000a0: 84d9 f842 40b3 6c43 209e 3a42 97db 7d43
000000b0: 51c1 d942 d5c1 1f43 11f0 9442 dcb1 0342
000000c0: 28e2 ce42 88a7 5d42 48b7 5e42 21e1 3c42
000000d0: 3d40 a343 14b0 1043 d2dd 7d42 14aa 0843
000000e0: 4d6c c742 f61f 3d42 4c54 0242 945a dd42
000000f0: bd50 8041 08b6 2f43 aa3e 9342 8e8e ca42

weight f4 [32, 64, 3]
-0.4253392 -0.12689894 0.09228384 -0.06148857 0.10202868 0.21803318 -0.40381217 -0.16488022
-0.14623751 -0.10242297 0.015917081 0.052699614 0.05262285 0.06212335 0.13759135 -0.48593777
-0.073838025 0.04285613 0.060476173 -0.0305922 -0.245074 -0.14120166 -0.020454478 -0.095715426
0.1437283 0.11434791 0.34587404 -0.26338238 -0.08780824 -0.041275267 0.09766928 0.16265287
0.2703561 -0.012319664 -0.026603606 -0.029667456 0.022729468 -0.022613503 -0.022851517 -0.08256464
-0.036693677 -0.049979772 -0.09773571 0.06264897 -0.03685649 0.22120437 0.07688528 0.12113197
-0.36894846 -0.097310536 -0.13567075 -0.07695607 -0.035596594 -0.17619753 -0.17141174 -0.08224993
-0.10209449 0.020007955 -0.0040817973 0.0852759 0.32805663 0.14521725 0.059511747 -0.0031350488
0.16040953 0.18980932 -0.07713511 0.07393715 0.24621038 0.0046355915 -0.0030084965 -0.013824553
-0.5179913 -0.22031896 -0.024914188 0.110474266 -0.009121206 -0.025708515 0.4292079 0.30490193
0.2429825 0.032101575 0.0220073 0.032187395 0.14356768 0.10506114 0.08974114 -0.07365048
-0.00737711 0.09565545 0.13987902 -0.05827639 -0.030363113 -0.6409219 -0.31462306 -0.2390661
0.008134166 0.027534435 -0.01735315 0.25269854 0.15163846 0.2798964 0.26405466 0.118692316
0.20397812 -0.37810358 -0.20450208 -0.16312544 0.23527327 0.12819299 -0.06713521 -0.10467474
0.051038403 0.08419615 -0.12634772 -0.01782957 -0.059568606 0.15630381 0.071300685 -0.020779802
0.20652446 0.030972792 0.0035842843 -0.77147365 -0.27684772 -0.20144226 -0.0035776843 -0.036504477
-0.066435896 -0.9738957 -0.5331959 -0.19771263 -0.21243949 0.026003283 0.23677221 -0.8013393
-0.3314406 -0.12651607 0.10867509 -0.045245595 0.08312023 -0.065142095 0.0012182507 0.08787641
0.2870712 0.041413978 -0.019782001 -0.13566355 -0.07110862 -0.06576952 -0.10928533 -0.01761271
-0.07776275 -0.0943109 -0.022349453 0.047613177 -0.035303228 0.19857451 0.3074868 -0.11006721
0.10973059 0.27274567 0.4987253 0.24741364 0.33359662 0.15258226 0.10685227 0.025035843
-0.41702944 -0.28575164 -0.23341167 0.21373174 -0.004944945 0.12955916 0.055722516 0.03283671
0.019489419 -0.17267057 -0.07751253 -0.17617841 -0.018410988 0.0036171428 -0.1790401 -0.38093305
-0.29079416 -0.21529816 0.15430275 0.0684153 0.15790181 0.1053431 0.04220745 -0.004853669
0.24354187 0.1318689 0.21672769 -0.4507913 -0.23779075 -0.275442 -0.18905681 0.048532166
0.1614123 -0.10452158 -0.0137847895 -0.062824234 0.096222684 -0.012203815 -0.16867745 -0.21510375
0.060309622 0.2299538 -0.12349558 -0.036247168 0.18322389 0.10842948 0.0362643 0.026441233
0.11988013 0.046963844 -0.072227 -0.14235865 -0.027530544 0.036322173 -0.2992145 -0.0348672
0.10708294 -0.33698556 -0.18105118 -0.07115754 -0.37039956 -0.15838428 -0.25179666 -0.32809338
-0.08719523 -0.025053639 -0.15145336 -0.01625826 0.1489331 -0.32794356 -0.118538216 0.06494077
0.1287774 0.08846213 0.2315063 -0.5188927 -0.032301754 0.09219006 -0.06488925 -0.013945951
-0.015793605 0.007347194 -0.08698222 -0.16318475 0.15107906 -0.072874725 -0.19966264 -0.15075625
00000000: 0fc6 d9be ccf1 01be 4fff bc3d 70db 7bbd
00000010: 6af4 d03d 1744 5f3e 78c0 cebe 5cd6 28be
00000020: 49bf 15be 22c3 d1bd 8a64 823c 8ddb 573d
00000030: 0f8b 573d 0e75 7e3d bfe4 0c3e d6cc f8be
00000040: 6438 97bd e989 2f3d ddb5 773d 7e9c fabc
00000050: aef4 7abe 2b97 10be 2690 a7bc 7306 c4bd
00000060: 832d 133e 3d2f ea3d 6716 b13e 0eda 86be
00000070: ced4 b3bd 4110 29bd d506 c83d 798e 263e
00000080: 1d6c 8a3e 6ad8 49bc ceef d9bc 2a09 f3bc
00000090: 2633 ba3c f43f b9bc 1b33 bbbc a617 a9bd
000000a0: 1c4c 16bd 97b7 4cbd a929 c8bd 1a4e 803d
000000b0: d5f6 16bd 6683 623e 0876 9d3d 0a14 f83d
000000c0: d0e6 bcbe bf4a c7bd 46ed 0abe 259b 9dbd
000000d0: bccd 11bd 206d 34be 8f86 2fbe a772 a8bd
000000e0: ea16 d1bd b9e7 a33c 99c0 85bb 22a5 ae3d
000000f0: 0af7 a73e d5b3 143e 97c2 733d 6475 4dbb
00000100: 6542 243e 605d 423e 03f9 9dbd 5c6c 973d
00000110: 931e 7c3e 29e6 973b 322a 45bb 6180 62bc
00000120: 149b 04bf 4b9b 61be d718 ccbc 5540 e23d
00000130: 1c71 15bc aa9a d2bc 23c1 db3e 1b1c 9c3e
00000140: 68d0 783e f17c 033d a748 b43c eed6 033d
00000150: 6803 133e 4c2a d73d 34ca b73d 10d6 96bd
00000160: afbb f1bb 01e7 c33d 723c 0f3e 39b3 6ebd
00000170: 10bc f8bc 7513 24bf 4616 a1be becd 74be
00000180: 2a45 053c e58f e13c 3128 8ebc b461 813e
00000190: 1d47 1b3e 954e 8f3e 2c32 873e f514 f33d
000001a0: a4df 503e cb96 c1be fe68 51be 5b0a 27be
000001b0: 7aeb 703e 0645 033e 2f7e 89bd b65f d6bd
000001c0: a50d 513d 086f ac3d 4c61 01be 520f 92bc
000001d0: 36fe 73bd 1b0e 203e 1806 923d 673a aabc
000001e0: 267b 533e a7ba fd3c 50e6 6a3b 4c7f 45bf
000001f0: fcbe 8dbe e146 4ebe 9577 6abb b885 15bd
00000200: 8b0f 88bd 3b51 79bf 877f 08bf 2e75 4abe
00000210: bd89 59be d604 d53c 6a74 723e 9324 4dbf
00000220: 95b2 a9be 6e8d 01be 0c91 de3d 7253 39bd
00000230: f03a aa3d 3869 85bd b6ad 9f3a 8cf8 b33d
00000240: fffa 923e b4a1 293d dd0d a2bc 63eb 0abe
00000250: 65a1 91bd 2cb2 86bd fdd0 dfbd 8848 90bc
00000260: 1442 9fbd 1326 c1bd 3316 b7bc 0906 433d
00000270: 1e9a 10bd 1e57 4b3e e96e 9d3e eb6a e1bd
00000280: 6eba e03d 52a5 8b3e ec58 ff3e 005a 7d3e
00000290: 2dcd aa3e 863e 1c3e 5dd5 da3d f817 cd3c
000002a0: e284 d5be 0a4e 92be 7803 6fbe 7edc 5a3e
000002b0: 3509 a2bb 28ab 043e 4b3d 643d c97f 063d
000002c0: 46a8 9f3c 8ed0 30be e4be 9ebd 1d68 34be
000002d0: a4d2 96bc 960d 6d3b 4a56 37be a809 c3be
000002e0: f9e2 94be 1f77 5cbe 8a01 1e3e 521d 8c3d
000002f0: 03b1 213e 20be d73d b8e1 2c3d 870b 9fbb
00000300: 0a63 793e a408 073e dded 5d3e 1ece e6be
00000310: 6b7f 73be bc06 8dbe 1c98 41be aac9 463d
00000320: 4449 253e 690f d6bd 99d9 61bc fea9 80bd
00000330: 6610 c53d 83f2 47bc c8b9 2cbe 2844 5cbe
00000340: 3907 773d 0279 6b3e 40eb fcbd e977 14bd
00000350: 0b9f 3b3e 4610 de3d e089 143d 499b d83c
00000360: b783 f53d 295d 403d c0eb 93bd 77c6 11be
00000370: bc87 e1bc 8fc6 143d a532 99be e9d0 0ebd
00000380: 4d4e db3d 5f89 acbe 7b65 39be 0bbb 91bd
00000390: 03a5 bdbe 7d2f 22be 7eeb 80be dbfb a7be
000003a0: 6a93 b2bd 4a3d cdbc 9716 1bbe 0b30 85bc
000003b0: eb81 183e 38e8 a7be 2ac4 f2bd abff 843d
000003c0: 39de 033e a22b b53d fd0f 6d3e 27d6 04bf
000003d0: d84e 04bd 24ce bc3d a8e4 84bd 8f7d 64bc
000003e0: 9761 81bc bbc0 f03b bc23 b2bd e719 27be
000003f0: 78b4 1a3e 583f 95bd 5d74 4cbe d95f 1abe

bias f4 [32]
0.0585545 -0.00017767181 0.0145241525 0.016814535 0.015378709 -0.029382983 0.06747319 -0.058091443
0.0069337357 0.049546253 -0.03869969 -0.06955518 -0.08731421 0.002774727 -0.11104379 0.038280305
0.07760972 0.027271947 0.031991336 -0.023382358 0.07007441 0.0741114 -0.0063517117 -0.054361563
0.079339005 0.057282597 0.06599848 0.0745612 0.09636878 0.025589002 -0.08539364 0.01573257
00000000: d8d6 6f3d 6a4d 3ab9 b6f6 6d3c a3be 893c
00000010: fbf6 7b3c 95b4 f0bc 622f 8a3d 4bf1 6dbd
00000020: 6434 e33b 03f1 4a3d 9183 1ebd f272 8ebd
00000030: cbd1 b2bd 32d8 353b ed6a e3bd cfcb 1c3d
00000040: d8f1 9e3d 6b69 df3c 5909 033d 5c8c bfbc
00000050: 2c83 8f3d b8c7 973d 0522 d0bb 3baa 5ebd
00000060: 7d7c a23d 28a1 6a3d 362a 873d 8bb3 983d
00000070: ff5c c53d 07a0 d13c dce2 aebd 97e1 803c

weight f4 [32]
0.9848012 0.9348705 1.2656084 1.202504 1.1566722 1.3045126 1.3191966 1.0936557
1.3843046 1.0598321 1.0600075 1.3844422 1.1165962 1.5687557 1.3769709 1.2723812
1.1279857 0.7496628 1.4609034 1.0695213 0.8261023 0.860774 0.93558776 1.10769
0.8120904 1.1784654 0.7599363 1.1225696 1.5989625 0.93109334 1.3236794 1.2383071
00000000: ee1b 7c3f ac53 6f3f 75ff a13f a7eb 993f
00000010: d60d 943f 45fa a63f 6fdb a83f e9fc 8b3f
00000020: e530 b13f 94a8 873f 53ae 873f 6735 b13f
00000030: a0ec 8e3f fdcc c83f 9540 b03f 63dd a23f
00000040: d661 903f e7e9 3f3f e2fe ba3f 13e6 883f
00000050: 717b 533f af5b 5c3f ae82 6f3f c9c8 8d3f
00000060: 28e5 4f3f f4d7 963f 2f8b 423f 5cb0 8f3f
00000070: ceaa cc3f 225c 6e3f 546e a93f d980 9e3f

bias f4 [32]
-0.3702899 -0.26099905 0.1146039 0.023630146 -0.23849547 -0.43357232 -0.40986905 -0.14182663
-0.12990783 -0.4495577 -0.30071563 0.09430234 -0.1393196 0.04245553 0.08594703 -0.17636558
-0.42490363 -0.10263742 -0.7541141 0.024515502 -0.27800843 -0.45939076 -0.23648939 -0.28868127
-0.33696246 -0.38623288 -0.48362094 -0.24954589 -0.28950462 -0.2536791 -0.042549822 -0.5408597
00000000: a396 bdbe aba1 85be 73b5 ea3d 0294 c13c
00000010: 2838 74be 31fd ddbe 5bda d1be 003b 11be
00000020: 8f06 05be 6d2c e6be 66f7 99be 9621 c13d
00000030: cca9 0ebe dae5 2d3d ff04 b03d 2e99 34be
00000040: f88c d9be 9133 d2bd 9f0d 41bf bcd4 c83c
00000050: 1f57 8ebe 4435 ebbe 462a 72be 08ce 93be
00000060: 5886 acbe 51c0 c5be 2a9d f7be f588 7fbe
00000070: f339 94be 3ae2 81be b948 2ebd c875 0abf

running_mean f4 [32]
-0.24459009 -0.7263515 -0.4467254 0.0363059 -0.22433817 -0.5476193 0.04706076 -0.539974
-0.23062108 -0.40847325 -0.27832648 0.16583578 -0.51978487 0.013681629 -0.18433943 -0.17428449
-0.5449099 -0.6580023 -0.2256051 0.13392632 -0.6231786 -0.5787495 -0.45445848 0.27991903
-0.49335635 0.3699964 -0.8921907 -0.3725099 -0.041683026 -0.06437688 -0.3263383 -0.299922
00000000: d375 7abe 2cf2 39bf 31b9 e4be 7fb5 143d
00000010: e8b8 65be c730 0cbf c9c2 403d bc3b 0abf
00000020: ef27 6cbe 6823 d1be cf80 8ebe dbd0 293e
00000030: 9f10 05bf e928 603c 7ac3 3cbe a277 32be
00000040: 377f 0bbf d772 28bf 0605 67be fb23 093e
00000050: a288 1fbf ed28 14bf c8ae e8be 8c51 8f3e
00000060: 3499 fcbe 2b70 bd3e 9c66 64bf 9eb9 bebe
00000070: d2bb 2abd 07d8 83bd d015 a7be 608f 99be

running_var f4 [32]
0.22865745 0.33969754 0.8935394 0.7140303 0.72118807 0.46375352 0.66147894 1.0067552
0.5769141 0.19619462 0.32625493 0.9284509 0.4114748 0.9971491 0.6291046 0.5643395
0.4213828 0.30155113 0.5344146 0.43744615 0.30027324 0.21720481 0.25591198 0.39766568
0.2548735 0.7839429 0.39920765 0.76855564 0.61857915 0.16754423 1.2579446 0.44654098
00000000: 2e25 6a3e d6ec ad3e 00bf 643f b1ca 363f
00000010: c89f 383f 1a71 ed3e af56 293f 5bdd 803f
00000020: a4b0 133f 3ee7 483e e30a a73e f5ae 6d3f
00000030: d3ac d23e 2a45 7f3f 000d 213f 8e78 103f
00000040: 7dbf d73e e964 9a3e 65cf 083f f1f8 df3e
00000050: 6abd 993e f06a 5e3e e506 833e d69a cb3e
00000060: c87e 823e 7bb0 483f f264 cc3e 10c0 443f
00000070: 345b 1e3f b790 2b3e 5404 a13f 05a1 e43e
