UI_CNN.model (torch, 160054 bytes, 20 tensors)

weight f4 [128, 8, 5]
000000 83 a1 33 3e b3 b7 5f 3e c6 46 de 3d 3a db 88 3e
       0.1754208 0.2184742 0.10853343 0.26729757
000010 d5 ea 0e be 96 03 c1 3e 4e fd 6c 3e cd cc bb 3e
       -0.13956769 0.37698048 0.23143503 0.36679688
000020 e0 e4 76 3e a0 b0 bc 3e 88 b3 90 3e 73 57 1d 3e
       0.24110746 0.36853504 0.2826197 0.1536539
000030 35 5b 07 3e c3 8a 45 3d 20 98 31 3e e9 bd b9 bb
       0.13218386 0.048228037 0.17343187 -0.005668391
000040 91 33 b6 bb 29 aa 7c bc 44 84 b8 3d d0 3b 8f bd
       -0.0055603464 -0.015421429 0.09009603 -0.0699383
000050 d7 d5 b8 be 4e 64 64 be 9b 34 99 be 5c 4e 94 be
       -0.36100647 -0.22303888 -0.29922947 -0.28966033
000060 46 03 45 be 09 cf 79 3e 88 c1 48 bd 83 ef a2 3e
       -0.1923953 0.24395384 -0.04901269 0.31823358
000070 19 48 d6 3e 1d 12 7e be 07 47 17 3d 1f f1 6b 3e
       0.4185188 -0.24811597 0.03693297 0.23041199
000080 8e ed 88 3d d9 30 3d 3e 6e a0 45 bf fb 32 f2 3d
       0.06685935 0.18475665 -0.7719792 0.1182613
000090 73 b2 2d 3e ab 42 c7 3e 28 f8 a9 3e 01 73 04 be
       0.16962604 0.3891805 0.3319714 -0.12934496
0000a0 5e ed ee 3a 73 ad e9 3a fd 2b 13 bd 02 b3 37 3f
       0.00182287 0.0017828181 -0.035930622 0.7175752
0000b0 67 3e 67 3e 7b a7 4e bd de 51 24 3d f4 11 b0 3c
       0.22582398 -0.05045269 0.040117137 0.021492936
0000c0 34 63 d1 3e bd 99 c0 3e 41 08 1b bd ad b6 08 be
       0.40895998 0.37617293 -0.03784967 -0.13350935
0000d0 89 11 77 bc c0 8d 5c 3f 82 38 13 3e fe 20 5d 3d
       -0.015079864 0.86153793 0.14377025 0.053986542
0000e0 6c 08 0f 3d 99 ce e9 3d 45 14 95 3e cb c8 96 3d
       0.03492014 0.114163585 0.29117027 0.07362517
0000f0 25 43 0f be b6 80 19 bd ce 57 5a bd c1 88 1b 3d
       -0.13990457 -0.037476264 -0.053306393 0.037972216
000100 e2 f8 70 bc 35 3f a6 bc a4 e5 b7 bc 1e 81 af 3c
       -0.014707776 -0.020293811 -0.022448368 0.021423873
000110 29 11 df 3d 6f 36 d3 bb 2f 1c 23 3e 02 a0 d3 3d
       0.10891945 -0.006445698 0.1592872 0.103332534
000120 5b b7 8c bd 9c df cb bc f3 68 7a 3d 60 35 4b 3b
       -0.0687091 -0.024886899 0.061135244 0.0031007156
000130 14 2c 20 3e 5d 29 53 3e 69 90 38 3e 34 00 6c 3d
       0.15641814 0.20621248 0.18023838 0.05761738
000140 0a 72 99 bc fb 27 96 3c 89 53 ad 3c 43 89 be bc
       -0.018731136 0.018329611 0.021157997 -0.02325881
000150 7b 79 e2 3b 24 da 5a bd 96 b3 88 bb 23 db d2 3b
       0.0069114543 -0.05343069 -0.004171799 0.0064348145
000160 1d 7b 2e 3d 2c d2 ee bb 80 25 7f 3b 65 f8 d8 bb
       0.04259788 -0.007288238 0.0038932264 -0.006621408
000170 07 3a b2 bc c1 08 54 bd be 47 c0 3b 10 4a ea bf
       -0.021756185 -0.05176616 0.0058679273 -1.8303852
000180 23 a0 c8 3e f2 d6 32 be af 24 6a be ac b6 26 bf
       0.39184675 -0.17464808 -0.22865556 -0.65122485
000190 d9 62 68 3e a6 3b fb 3d d2 26 e0 3d c5 78 ca 3d
       0.22693957 0.122672364 0.109449044 0.09886316
0001a0 de 18 75 3d 9a 00 13 3e c4 56 32 3d 31 17 43 3d
       0.05983817 0.14355698 0.043539777 0.04762954
0001b0 b7 f3 9b 3d 17 8f c9 3d 87 02 b9 bb dd 1b e0 bc
       0.07614844 0.09841745 -0.0056460532 -0.027357036
0001c0 63 99 b7 bc 80 ba a3 bc b5 19 a8 3a 3a 83 86 3a
       -0.022412008 -0.019986391 0.0012825044 0.0010262497
0001d0 b7 fc 57 3c 00 b3 59 3c f4 92 fb 3c a4 24 97 3c
       0.0131828105 0.013287306 0.030709721 0.018450089
0001e0 0d 48 71 3d 0d 28 27 3d d2 54 91 3c 7e fa b9 3c
       0.058906604 0.04080968 0.01774064 0.022702452
0001f0 1a 5b 0c bc 2c c9 c8 be 26 e7 aa be 06 ad 7e bd
       -0.008566642 -0.39215982 -0.33379477 -0.062176727
000200 27 0b fe bc ec ab 33 3d cb 7e 08 3f 69 e9 0d 3f
       -0.031011177 0.04386513 0.5331847 0.5543428
000210 81 9a 39 3e ad 0c bf 3d e8 6f 69 3d 6e a3 10 bf
       0.18125345 0.093285896 0.056991488 -0.56499374
000220 9d 20 22 bf ab 62 91 be 2f 1b 03 be a6 ae e5 bd
       -0.63331014 -0.2839559 -0.12803338 -0.11214952
000230 26 86 af 3e 38 38 6e 3e 29 4b b4 3d 2f b1 97 3b
       0.34282035 0.23263633 0.08803398 0.004629276
000240 83 fd 99 3b 1d 07 18 be ef e2 5e 3d bc 01 81 3d
       0.0046994104 -0.14846464 0.05441564 0.06299159
000250 c3 cb bf 3d 80 b1 6b bd a2 08 19 3d 87 60 e6 39
       0.09365036 -0.057542324 0.03736175 0.00043940937
000260 ae 90 95 3c 1e 3e d9 bc 38 31 bf ba be 8d 03 3c
       0.018257465 -0.026518878 -0.0014586812 0.008029399
000270 bc a7 9b 3c 92 dd e7 3b 66 69 88 3c 0b 4a 24 3c
       0.01900088 0.007075974 0.01665182 0.010027419
000280 1c c6 93 bc 8f ef 50 3b f6 1d 32 bc ee 27 ef bc
       -0.018038802 0.003188107 -0.010871401 -0.029193845
000290 3a b6 28 bd 35 0e 0e 3b f3 29 1e 3d 9e 60 a6 3c
       -0.04118941 0.0021675949 0.038614225 0.020309743
0002a0 cf b8 d9 ba 85 5e e3 bd 7f db d6 3c 28 c8 85 3c
       -0.0016610863 -0.111020125 0.02622771 0.016330793
0002b0 8a 4e 19 3c 16 9d dd bc 93 87 2c 3d 8e ba 4a bf
       0.009357104 -0.027052443 0.04212148 -0.7919091
0002c0 7f 7c f3 be 89 0d c9 bd b8 a8 01 be be 32 b3 bf
       -0.4755592 -0.09817035 -0.12662017 -1.399986
0002d0 30 77 e0 3d 2a 59 4f 3d c5 3b d3 bb c1 6c 98 bd
       0.10960233 0.050622143 -0.006446334 -0.07442618
0002e0 8a 5c 44 3c 1b 2a 92 3d 90 1a 35 3d 88 a7 89 3d
       0.011984954 0.07136937 0.044214785 0.06721407
0002f0 44 aa 5d 3d 6f 85 fe 3d 6f ae b4 bc c6 9a 41 bc
       0.054117456 0.12427794 -0.022055833 -0.011816686
000300 08 cb b4 bc be 32 c3 bc a2 d6 7d 3a f3 2d 42 3c
       -0.02206947 -0.023827907 0.0009683167 0.011851775
000310 0a 21 44 3c c9 78 ce bb 66 45 da 3c 1f cc 2e 3c
       0.011970768 -0.00630102 0.02664442 0.010668783
000320 6b d2 27 bd 49 a8 0d bd 8e b0 ec 3c 90 62 8c bb
       -0.040972155 -0.034584317 0.028892782 -0.0042842105
000330 4b c3 4e bd 6f 74 26 3d d3 eb 44 bc 8d 52 f3 bc
       -0.050479215 0.040638383 -0.0120191155 -0.02970245
000340 e6 e2 29 3d 32 15 2e 3d b2 df a2 3d 24 f5 99 3c
       0.041476153 0.042500682 0.07952823 0.01879365
000350 8b 05 88 bc f5 fa 80 3c 65 e1 f4 3d f3 b2 33 3d
       -0.016604206 0.015744666 0.11957053 0.04387183
000360 98 64 53 3d 18 14 89 bb 60 02 77 3d b2 a6 ab 3d
       0.051609606 -0.0041833036 0.060305 0.08381404
000370 3d 8c a0 bd 54 7a d4 bc 7f 7c 23 3e 49 2f 23 be
       -0.07839248 -0.025937237 0.1596546 -0.15936007
000380 e3 eb 68 be ca 1e b8 bf 26 29 b6 bd 81 95 18 3f
       -0.22746234 -1.4384396 -0.08894567 0.59603125
000390 02 d9 2a 3e 04 e2 d7 bf a5 ee b9 3b 5c a5 61 bd
       0.16684344 -1.686585 0.0056742006 -0.05508934
0003a0 b4 4d 58 bd 1d 18 4a bd 70 7b 71 3c c6 96 c3 3c
       -0.05280848 -0.049339402 0.014738902 0.023875605
0003b0 b1 b6 d6 3c 2a 4f 58 bd 02 9d 47 bd 19 6d 06 3c
       0.02621016 -0.05280987 -0.04873372 0.008204722
0003c0 36 7a c9 3e 8b 5e 18 3e 62 e0 66 3b 26 89 b4 bd
       0.39351052 0.14879815 0.0035228957 -0.088152215
0003d0 21 9b 22 bd 8e 61 e5 be 1a bc 38 be bd b2 93 3e
       -0.039698724 -0.4480099 -0.18040505 0.28847304
0003e0 7a d6 1c 3e 13 d0 2f 3e 48 4d 49 3d 0d 73 4c 3c
       0.15316191 0.17169218 0.049145967 0.012478602
0003f0 f8 30 35 be 4d 24 05 be a9 a2 8a bd 62 db e0 3d
       -0.17694461 -0.13002129 -0.06769306 0.10979344

bias f4 [128]
000000 e2 c3 07 bd c8 86 1e be d9 7d 1c be eb 69 be bc
       -0.033145793 -0.15481102 -0.15282382 -0.023243865
000010 be d6 e5 3d 33 2e d6 bd 11 48 57 3d 69 b3 b9 3d
       0.112225994 -0.104580306 0.052558962 0.09067423
000020 f8 47 ec bd 8a 00 8b 3d ff be e3 3c ef cb 12 be
       -0.115371644 0.06787212 0.027801035 -0.14335607
000030 d6 1d 4a bb f4 dc 17 be ca fc 0d 3e 7d 26 98 3d
       -0.0030840538 -0.1483038 0.13865963 0.07429216
000040 d3 fa 7a 3d 89 68 f8 3d cd 4a f7 3d e0 ed 1e 3e
       0.06127436 0.121293135 0.12074814 0.1552043
000050 1d 90 83 3d 61 1c eb bd b5 48 16 3e e0 12 34 3d
       0.06423972 -0.11480022 0.14676173 0.043963313
000060 c1 59 7f bd 46 f8 6d bd b5 99 18 3e b6 b7 10 3d
       -0.062341455 -0.0580981 0.14902385 0.03533145
000070 1e 3d eb 3d 31 66 34 3c 12 fb 15 3e 19 8e ef bd
       0.114862666 0.011010692 0.14646557 -0.11697025
000080 a7 7c 11 3d 84 2f 17 3d e7 6a 08 bb e7 b5 0b 3e
       0.03551927 0.03691055 -0.0020815672 0.13643609
000090 3c 05 04 3d 05 1f 24 3c 52 01 db 3d eb ea 38 bc
       0.032231554 0.010017161 0.10693611 -0.011286478
0000a0 59 ef 1e bc 8d 42 06 be df ac 0e bb 84 f8 98 bd
       -0.00970062 -0.13111325 -0.002177052 -0.074692756
0000b0 e3 00 ba 3d 8d 90 0c 3e 94 ab 17 be 29 66 bb bd
       0.090822004 0.13727017 -0.14811546 -0.09150345
0000c0 fa a2 1a 3e 1f b8 8b bd 30 05 10 3e e1 a5 1f 3e
       0.15101233 -0.06822228 0.14064479 0.15590622
0000d0 4e f7 23 bd 47 6a 01 be f8 6c a0 3d 91 88 95 3d
       -0.04003077 -0.12638198 0.07833284 0.073014386
0000e0 36 69 0d 3e 8e 68 bb 3c 5c ae ae 3d e9 ca 09 be
       0.13809666 0.022877004 0.0852935 -0.1345631
0000f0 ad f8 ac 3c aa 0f 1d 3d eb 47 ca 3d f8 e2 ac bd
       0.021114672 0.038345017 0.098769985 -0.08441728
000100 2a 1d a9 bc a7 b6 c2 bd a3 29 da bd a7 b7 86 3d
       -0.02064379 -0.095074944 -0.10652473 0.06577998
000110 ce d6 bc 3c 20 3a 81 3d f2 f2 68 bb 40 c6 4b bb
       0.023051646 0.063099146 -0.0035545197 -0.0031093508
000120 a9 36 d0 bb 52 cc ac 3d 33 45 e0 bd e1 9e 0c 3d
       -0.0063541722 0.084374085 -0.10950699 0.034331206
000130 a1 73 b2 3d 53 e3 b9 3d 77 d2 9b bd bf dc fb 3d
       0.08713461 0.09076562 -0.07608502 0.12297963
000140 70 f5 d7 bd 1d 2e a9 3d 75 c5 04 3e fc 54 be 3b
       -0.1054486 0.082607485 0.12965949 0.005808471
000150 9b f5 46 3d 95 86 19 be 99 38 7d bd 56 0f 7d bd
       0.04857407 -0.14992745 -0.061821554 -0.061782204
000160 79 17 16 be 7e 50 0d bd 92 f8 e1 3d 00 f3 7a bc
       -0.14657392 -0.03450059 0.11033739 -0.015316725
000170 2a 8e 1f 3e 12 f9 10 be ca a9 85 3d a6 37 0a 3e
       0.15581575 -0.14157513 0.06526525 0.1349779
000180 ee e9 19 3e 60 01 7d bd 6a c6 11 be 41 d6 6b bd
       0.15030643 -0.06176889 -0.14235845 -0.057577375
000190 17 f7 ee 3d 57 8c 5f 3c 8d dc 1a 3e 3c 1a ee bd
       0.116682224 0.0136442995 0.15123196 -0.116260976
0001a0 21 b6 cb bd 2b b2 a5 3d 0c 64 5a 3d 3a bc d6 bd
       -0.09946848 0.080906235 0.05331807 -0.1048512
0001b0 2e 76 14 3e 18 4d 78 bd eb 1b 07 be 2a 13 33 3d
       0.14498207 -0.060620397 -0.13194244 0.04371945
0001c0 09 49 b5 bd e8 fa 9b bd a4 cf b4 bd 6c 67 29 3d
       -0.08851821 -0.07616216 -0.08828667 0.041358396
0001d0 49 21 98 3d d9 b5 da 3d 3f d8 b6 bd 36 47 17 bd
       0.07428224 0.10679216 -0.089279644 -0.036933146
0001e0 c1 88 16 3e 58 7d a6 bd 1a 07 74 bd de a9 fa bc
       0.14700605 -0.08129376 -0.059577085 -0.030598577
0001f0 fa e8 0f be 1a 3e f0 bd fc 3d 11 3e ae c9 dc 3c
       -0.14053717 -0.11730595 0.14183801 0.026951637

weight f4 [128]
000000 20 40 89 3f 9e c9 1b 3f 77 f0 69 3f d6 e5 69 3f
       1.0722694 0.6085452 0.91382545 0.91366327
000010 a6 c5 79 3f 47 b0 65 3f 8f 5e 3e 3f 05 64 83 3f
       0.9756721 0.897221 0.74363035 1.0264899
000020 f1 f6 8a 3f 6d cc 30 3f ac eb 76 3f 05 6a 84 3f
       1.085661 0.6906193 0.96453357 1.0344855
000030 23 05 68 3f 11 16 5f 3f 84 88 53 3f d1 14 59 3f
       0.9063284 0.87143046 0.8263018 0.8479739
000040 7f 12 71 3f 66 48 48 3f f0 14 40 3f ab de 61 3f
       0.9416885 0.7823547 0.7503195 0.8823039
000050 96 c7 70 3f 61 4b 4f 3f 99 5f 77 3f 1b 3f 7b 3f
       0.94054544 0.80974394 0.96630245 0.98143166
000060 fe ab 85 3f ef f1 4c 3f 4b 6a 6e 3f 83 44 54 3f
       1.0443113 0.8005666 0.9313094 0.8291704
000070 27 0f 57 3f ed 7f 6f 3f 24 3d 84 3f 35 d8 76 3f
       0.84007496 0.93554574 1.0331159 0.96423656
000080 f9 99 85 3f cc 4f 6a 3f 57 ae 4e 3f 44 f6 cf 3f
       1.0437614 0.9152801 0.8073477 1.6247029
000090 be db 32 3f 01 a2 76 3f 7d a2 5c 3f 30 9a 9d 3f
       0.6986655 0.9634095 0.8618544 1.2312679
0000a0 74 3a 84 3f 18 6a 4e 3f 0b bd 48 3f 62 f5 ae 3f
       1.0330338 0.80630636 0.78413457 1.3668635
0000b0 40 cf 88 3f a6 d0 4b 3f 39 ba 61 3f 95 b8 64 3f
       1.0688248 0.7961525 0.8817478 0.8934415
0000c0 b2 3b 4b 3f f6 2b 8a 3f 95 19 88 3f 61 29 62 3f
       0.7938796 1.0794666 1.0632807 0.8834439
0000d0 7c d2 47 3f 04 08 90 3f 92 c4 69 3f fe ea b0 3f
       0.7805555 1.1252446 0.9131557 1.3821714
0000e0 c6 1b 8d 3f cb 87 60 3f a0 74 c2 3f 17 c8 c8 3f
       1.1024101 0.87707204 1.5191841 1.5686063
0000f0 bd cf 29 3f 12 cc 5b 3f 60 69 a0 3f a7 58 93 3f
       0.6633261 0.8585826 1.2532158 1.151143
000100 39 85 a7 3f d9 84 5a 3f a4 f2 92 3f af 31 6a 3f
       1.3087531 0.8535896 1.1480298 0.9148206
000110 98 22 56 3f e3 21 78 3f 0a fd 5e 3f c2 32 a5 3f
       0.83646536 0.9692671 0.87104857 1.2906115
000120 b3 c0 aa 3f ec 26 3c 3f 0d 38 9c 3f 03 ac 41 3f
       1.3340057 0.7349689 1.2204605 0.75653094
000130 7a 61 77 3f 36 ab 41 3f 6e a0 87 3f 38 01 4d 3f
       0.9663311 0.7565187 1.0595834 0.80079985
000140 55 c7 36 3f 2a 32 c1 3f c3 68 50 3f 69 9d 46 3f
       0.71397907 1.5093434 0.81409854 0.7758394
000150 78 d8 57 3f 38 0e 85 3f 17 17 76 3f 0f 80 65 3f
       0.8431468 1.0394964 0.9612898 0.89648527
000160 4a 00 75 3f 46 49 37 3f fd b4 92 3f 5f 19 56 3f
       0.95703566 0.7159618 1.1461483 0.83632463
000170 72 d6 87 3f 55 33 8b 3f 1a 72 44 3f f0 e0 52 3f
       1.0612319 1.087504 0.76736605 0.8237448
000180 e2 7d 39 3f 7f 90 80 3f 4c 59 2d 3f 80 90 9e 3f
       0.72457707 1.0044097 0.6771438 1.2387848
000190 0a c0 44 3f 25 a9 66 3f 3d d1 6b 3f 11 db 56 3f
       0.7685553 0.90101844 0.9211615 0.8392802
0001a0 ec 7c 56 3f ea 3b 87 3f 56 76 6d 3f 5e ac 42 3f
       0.83784366 1.0565159 0.9275869 0.7604426
0001b0 1e cd 84 3f d3 1b 68 3f cf 68 85 3f e9 f2 80 3f
       1.0375097 0.90667456 1.042261 1.007413
0001c0 09 07 6a 3f 08 3a 54 3f cc ca 8a 3f 50 e5 6a 3f
       0.91416985 0.8290105 1.0843139 0.91756153
0001d0 2c 39 20 3f 10 3b 65 3f 89 a3 53 3f 91 c0 53 3f
       0.6258724 0.8954325 0.8267141 0.8271571
0001e0 6c a9 28 3f 28 99 96 3f 3a db c8 3f 59 bf 49 3f
       0.6588352 1.176549 1.5691903 0.788076
0001f0 86 da 52 3f 0b 6a 5e 3f 0c 3c 4f 3f ce 07 69 3f
       0.8236469 0.8688056 0.80951 0.91027534

bias f4 [128]
000000 9e 52 73 bf 93 69 ff bc 33 44 41 bd 9d a5 a7 bd
       -0.9504794 -0.031178271 -0.04718418 -0.08185885
000010 90 1a 87 bd 49 94 90 bd c7 69 29 be 48 3f 91 be
       -0.06596863 -0.07059533 -0.16544257 -0.28368592
000020 c6 3b 37 be ac 41 f5 bd 59 72 1e be 4b 10 fa be
       -0.17893896 -0.119754165 -0.15473308 -0.48840556
000030 3d 41 7e bd 9e 5a 4a be 05 87 69 be 15 84 be bd
       -0.062073935 -0.1976113 -0.22805412 -0.093025364
000040 bd 0e 7e bd a1 a3 c6 bd 0d aa 9a bd 23 38 f3 bd
       -0.062025774 -0.096991785 -0.07551966 -0.118759416
000050 61 0b 8e bd 00 d7 d8 bd 95 b0 0e be a6 9e 83 be
       -0.06935764 -0.10587883 -0.13934548 -0.25706977
000060 7d 5a 47 bf 00 dc 29 bd eb 24 bc be 8d ec 28 be
       -0.7787245 -0.041469574 -0.36746916 -0.16496487
000070 eb 5d 60 bd a1 0d 09 be de f7 8d be 4d 45 2a be
       -0.054777067 -0.13384105 -0.2772817 -0.16627999
000080 9c 83 19 be 3e 19 ca bd 45 ff b5 bd 89 cb a6 be
       -0.14991611 -0.09868096 -0.088865794 -0.3257716
000090 8d 37 72 bd dd 33 74 be cf de f2 bd 80 43 f1 be
       -0.05913501 -0.2384791 -0.118589036 -0.4712181
0000a0 73 bc 0d be 4a 01 2b bf 41 a6 90 bd ed 3c ec bd
       -0.13841419 -0.6679884 -0.070629604 -0.11535058
0000b0 77 04 0a be b0 a0 84 be 9c 05 94 bd 74 88 31 bf
       -0.13478266 -0.25903845 -0.072276324 -0.69348836
0000c0 3c 43 0e be b2 c7 ad be e1 95 f2 bd ec f2 73 bd
       -0.13892835 -0.33941418 -0.118449934 -0.05955784
0000d0 3f d9 68 bd 65 0a e3 be 1d 32 ac bd 25 a4 e2 bd
       -0.056847807 -0.44343868 -0.08407996 -0.11066464
0000e0 26 9d 79 be 13 b0 9d be 68 9e 88 be 53 50 ac be
       -0.24376354 -0.30798396 -0.26683354 -0.33655033
0000f0 cf 9c 03 be 67 7d 5f be ba 19 c0 bd fc 62 60 bf
       -0.12852786 -0.21825181 -0.09379907 -0.8765104
000100 a9 3e 03 be fc 8e 9d bd 58 72 98 bf b3 a4 16 bd
       -0.12816872 -0.07693288 -1.1909895 -0.036778163
000110 82 77 ff bd af 46 45 bf 71 31 9a bd de bd e0 be
       -0.12473966 -0.7706098 -0.075289614 -0.43894857
000120 a6 0e 00 bf 65 1b 45 be f0 5a e3 bd 14 61 6c bd
       -0.5002235 -0.19248731 -0.11101329 -0.05770977
000130 84 38 a5 be 7d 38 8a bc 1f a1 c2 be 8f 5a 1a be
       -0.3226968 -0.016872639 -0.3801355 -0.15073608
000140 56 be c9 bd ab c0 32 be 38 52 af bd e5 ea 20 bf
       -0.09850757 -0.1745631 -0.08560604 -0.6285842
000150 c0 21 a3 bd 15 9e 85 bf 87 9e 41 bd 0c c7 d3 be
       -0.07965422 -1.0438868 -0.047270324 -0.41362798
000160 60 a9 1a bf 72 96 20 bd e6 03 6e be 21 d8 ae bd
       -0.60414696 -0.039205976 -0.23243675 -0.08537317
000170 9f 64 30 be e5 50 32 be 42 24 35 bd af ae 46 be
       -0.17225884 -0.17413671 -0.04422403 -0.19402574
000180 11 ee 83 bd f0 c9 e5 be 2d 83 90 bd b5 64 fa be
       -0.06441892 -0.4488063 -0.0705627 -0.48904958
000190 a1 a8 4f be ac 0d bd bd 7e b0 2c bf 03 0b 82 bd
       -0.2027917 -0.09231123 -0.67456806 -0.063497566
0001a0 51 4b 0f be e1 7c 81 be d1 5d c2 bd b9 1c e0 bd
       -0.13993575 -0.25290588 -0.0949055 -0.109429784
0001b0 4c 20 96 be 80 6a 11 be f2 e4 c9 ba 9b 6a 23 bf
       -0.29321516 -0.14200783 -0.0015403314 -0.6383454
0001c0 df 9f 16 bf 4a 89 d9 bc 23 b8 c3 bd 22 d2 09 be
       -0.58837694 -0.026554722 -0.09556606 -0.13459066
0001d0 95 46 98 bd ae 67 8c bd 8b 04 d1 be 85 cd 26 be
       -0.074353375 -0.06855713 -0.4082378 -0.16289337
0001e0 58 c1 56 bd e2 3d b0 bd 99 9a ab be 06 19 ff be
       -0.05243048 -0.08605553 -0.33516386 -0.4982378
0001f0 15 f4 00 be 3b a3 cd bd a0 17 6a bd 9e c5 14 bd
       -0.1259311 -0.10040899 -0.057151437 -0.036321275

running_mean f4 [128]
000000 82 da 0f c0 c3 c5 45 c0 f4 c6 62 3f 9b f0 46 3e
       -2.2477117 -3.0901954 0.8858483 0.19427721
000010 74 86 00 40 87 34 09 40 7b 5d 5c 3f 6a 16 8e 40
       2.0082064 2.143831 0.8608014 4.440236
000020 eb e7 cc 3f 80 05 cb 3f d6 94 1f bf 9d 6c e1 3e
       1.6008276 1.5861053 -0.6233648 0.44028178
000030 78 10 05 be 0e 62 20 c0 17 ff ea 3d 8a f6 d3 bf
       -0.12994564 -2.5059848 0.11474436 -1.6559613
000040 dd 21 a4 3d 5e 1b a4 3f 58 d4 de bf 03 4c 82 bc
       0.080142714 1.2820852 -1.7408552 -0.015905386
000050 0a b5 4d 40 29 65 21 3e fc 6e 39 bf 08 9f 55 bf
       3.2141747 0.15761246 -0.72434974 -0.8344579
000060 c0 08 43 3f de c9 1a c0 b6 57 13 3f 06 83 b8 3e
       0.76185226 -2.418571 0.5755571 0.36037463
000070 04 4d 9e be 8d 4e 8e 3e 20 19 9e 3f fa 74 fb be
       -0.30918133 0.27794304 1.2351418 -0.49112684
000080 56 b2 f7 3d 20 f9 fa 3f 42 07 88 bf 10 ae bb bf
       0.12094562 1.9607277 -1.0627215 -1.4662495
000090 95 86 07 40 e0 a5 5a bf 70 e4 d5 3e b0 bf 6b bf
       2.1175892 -0.85409355 0.41775846 -0.92089367
0000a0 43 5a 0e c0 1e 5f fd 3e f0 dd 71 3f 6f 3e 08 c0
       -2.2242591 0.4948663 0.94479275 -2.1288106
0000b0 27 21 46 40 9c eb 17 bf b8 de 1f bc 34 b8 8a 3e
       3.0957735 -0.59343886 -0.00975769 0.2709366
0000c0 ac a7 6e 3c d6 37 ee 3f 37 ee 01 3f 40 ae 87 3f
       0.014566343 1.861079 0.5075411 1.0600052
0000d0 8a 7f fa 3f 26 82 8d c0 7c 9e 33 c0 f7 52 ec 3f
       1.9570172 -4.4221373 -2.806548 1.8462819
0000e0 cc 64 6c 3f e2 1d a6 40 b0 24 cd bf f4 1e 8d 3f
       0.92341304 5.191148 -1.6026821 1.1025071
0000f0 2b 52 db 3d c5 ae 4a 3f b4 d1 2a be ee f3 ca bf
       0.10709032 0.7917293 -0.16681558 -1.5855691
000100 2c 73 b5 3e 16 2b 79 be 91 f8 b1 3f 5f ab df bf
       0.35439432 -0.24332842 1.3903981 -1.7474173
000110 a0 5f 8d bc 5d 18 4e 3f be fc da 3e e8 47 b8 bf
       -0.017257512 0.80505925 0.42770952 -1.4396944
000120 95 df 10 40 ad 11 35 c0 c5 fe a0 3e cd 06 de 3f
       2.2636464 -2.8292038 0.31444374 1.7345825
000130 fe c1 c7 3d 37 f0 3c bf e5 7c e4 be c6 c0 95 3e
       0.09753798 -0.7380404 -0.44626537 0.29248637
000140 e8 3a 8c bf a4 d6 8d 3f 05 86 4b 40 e6 60 63 bf
       -1.0955477 1.1081128 3.180055 -0.8881973
000150 76 01 96 3f 26 88 91 3f 48 d3 c0 bf 91 03 2c be
       1.1719196 1.1369674 -1.5064478 -0.16798235
000160 7f 7c b3 40 14 a3 05 3f 15 84 42 c0 9f 13 d5 be
       5.6089473 0.5220196 -3.0393116 -0.41616532
000170 af c8 fd be f7 55 4d c0 70 a7 b9 bd c0 f3 85 bf
       -0.49567172 -3.2083719 -0.09065139 -1.0465012
000180 b3 2d 24 3e 2d 1c aa bf ed 44 65 be 76 ea 42 bf
       0.16033058 -1.3289849 -0.22389574 -0.7613901
000190 4c 14 14 3f 40 b9 7f c0 32 15 9a 3d 02 66 b4 3f
       0.5784347 -3.9956818 0.07523574 1.409363
0001a0 22 69 14 c0 92 a4 93 3f 0b c5 a3 3e 3c 73 2f 40
       -2.3189168 1.1534598 0.3198627 2.7414083
0001b0 b1 c5 47 bc 22 b1 72 be db 71 96 40 46 be de 3f
       -0.012193129 -0.23700383 4.7013984 1.7401817
0001c0 5d d6 06 3f b1 2f 06 c0 99 ed 8d 3e 6c 91 ae be
       0.5267084 -2.0966609 0.27720335 -0.34095323
0001d0 13 85 5b 3e 6f b8 ba 3e 5d 6f a9 3f 61 bc ba be
       0.21437483 0.36468837 1.323711 -0.36471847
0001e0 ac e4 1a c0 23 4e a3 bd fb 1b f3 3f bc 77 ca be
       -2.420207 -0.07973888 1.8992914 -0.39544475
0001f0 7c e9 cc bb 45 50 14 3f 1f be d5 3f 14 6c 85 bf
       -0.0062534194 0.5793498 1.6698645 -1.0423608

running_var f4 [128]
000000 98 db d7 43 db e1 18 44 c6 ed c0 44 3f 3b 52 43
       431.71558 611.529 1543.4304 210.23143
000010 18 1f 56 44 7b d7 e4 43 1f e1 37 43 2b 44 ce 43
       856.48584 457.68344 183.87938 412.53256
000020 e8 d7 26 43 94 a0 c3 43 eb 56 ce 43 6e 29 00 43
       166.84338 391.25452 412.67905 128.16183
000030 87 dd cc 43 2d b4 70 44 87 f4 92 43 75 5a 1e 44
       409.73068 962.81525 293.91037 633.4134
000040 c5 40 03 44 6c e0 fd 43 91 f0 3c 44 73 a5 43 43
       525.012 507.7533 755.75885 195.64629
000050 41 ef d8 43 54 8a 86 43 83 92 c1 43 2e 11 ec 43
       433.86917 269.0807 387.14462 472.13422
000060 bf 9c 6a 43 37 38 4d 44 35 db aa 43 e9 47 26 43
       234.61229 820.87836 341.71255 166.2809
000070 77 69 a9 44 21 b4 51 43 ca 8c a9 43 d2 20 1f 43
       1355.2958 209.70363 339.0999 159.1282
000080 67 4d 5f 43 e1 d1 47 44 7b 75 1a 44 25 5c 82 43
       223.30235 799.27936 617.83563 260.71988
000090 3d 7a d0 43 2a 73 4c 43 21 44 a0 43 2f 91 c8 42
       416.955 204.44986 320.53226 100.28356
0000a0 04 a1 83 43 af 4c 7a 43 29 cb 2d 44 20 0f 48 44
       263.25793 250.29955 695.1744 800.2363
0000b0 a6 27 ef 43 7b a8 a4 43 60 e2 b7 43 de 62 18 44
       478.30975 329.31625 367.76855 609.5448
0000c0 78 5d 8e 43 fc 63 39 43 58 fb 4e 44 18 21 45 44
       284.73022 185.39056 827.92725 788.5171
0000d0 0e 93 69 44 e4 8e 57 43 33 d5 0b 44 c9 e8 14 44
       934.2977 215.55817 559.33124 595.63727
0000e0 f7 50 9c 43 40 88 6d 43 57 f4 74 43 02 f0 6e 43
       312.63254 237.53223 244.95445 238.93753
0000f0 33 35 32 43 41 26 5b 43 0a 58 24 44 d9 5a 04 44
       178.20781 219.14943 657.3756 529.4195
000100 69 db df 43 a9 be 0a 44 ae fa b7 43 de 98 20 44
       447.71414 554.97906 367.95844 642.38855
000110 a2 0f 3b 43 6d aa 9f 43 5b da bb 43 71 b2 65 43
       187.06107 319.33145 375.7059 229.69704
000120 63 f6 5b 43 fe 80 8c 43 d1 f8 28 44 9f b2 64 44
       219.96245 281.00775 675.88776 914.79095
000130 47 fc 84 43 96 12 46 44 44 7f 16 43 3c cd 6f 43
       265.97092 792.2904 150.49713 239.8017
000140 57 a2 12 44 db 40 f4 43 b7 f8 33 44 01 ba a1 43
       586.53656 488.50668 719.88617 323.45316
000150 b4 9c ef 43 b1 2e 2b 43 90 f1 93 44 15 a9 55 43
       479.22424 171.18239 1183.5488 213.66048
000160 d2 ff bb 43 b9 a3 7b 44 3f 2c 77 43 d0 8b 02 44
       375.9986 1006.55817 247.17284 522.1846
000170 28 1b 53 43 b2 52 db 43 2b 9e ef 43 a3 76 c0 43
       211.10608 438.64606 479.2357 384.92685
000180 d6 d7 36 43 5d 12 46 43 e1 92 90 43 ad e0 7c 43
       182.84311 198.07173 289.1475 252.87764
000190 93 f2 bd 43 31 4a da 43 45 57 a9 43 f9 18 5b 44
       379.8951 436.57962 338.6818 876.3902
0001a0 94 74 be 43 21 02 27 43 07 73 f5 43 1e 79 c6 43
       380.91077 167.00832 490.89865 396.94623
0001b0 43 22 0a 43 7b 68 26 44 ff 9b e3 43 26 af 76 43
       138.13383 665.6325 455.21872 246.68417
0001c0 16 58 60 43 74 d8 7f 44 7a e8 8e 43 a8 11 dd 43
       224.34409 1023.3821 285.81622 442.13794
0001d0 17 10 8f 43 5c f4 9c 43 64 ba e4 43 29 e0 8c 43
       286.1257 313.90906 457.45618 281.75125
0001e0 4d ef 25 44 d1 c9 c0 43 b9 e7 73 43 42 a0 74 43
       663.7391 385.5767 243.90517 244.626
0001f0 6b 98 a5 43 f8 5c 91 43 71 4a 37 44 98 e8 01 45
       331.19077 290.72632 733.16315 2078.537

weight f4 [64, 128, 3]
000000 b3 21 67 3e 75 65 03 bc 35 f7 2a 3d 30 a4 1f 3e
       0.22571449 -0.008019795 0.04173966 0.15589976
000010 df ff 4b bd 89 19 8a 3d 50 b1 44 bc 77 52 1b bd
       -0.049804565 0.06743152 -0.012005165 -0.03792044
000020 41 2f 00 be d0 94 53 bd d4 5d 4d 3d e2 9b 0f bd
       -0.12518026 -0.05165559 0.05013831 -0.03506077
000030 cc 5d 5e bd 91 41 bd bd d1 34 61 3c 29 96 07 be
       -0.05428867 -0.092410214 0.013745503 -0.13240875
000040 d5 35 e2 bd 9d f4 9f be c1 09 d0 be f8 f9 bf be
       -0.11045424 -0.31241313 -0.40632442 -0.374954
000050 f8 cb 04 bf 14 da 69 be 36 5f 06 be 7b e5 be be
       -0.5187373 -0.22837096 -0.13122258 -0.37284455
000060 4f af b8 be 13 2b 51 be b6 77 20 bf 57 1e bd 3c
       -0.3607125 -0.20426588 -0.62682664 0.023085756
000070 82 0a 8e 3d 74 bc da 3d 4f 1a 40 be 2a 3e 68 bd
       0.06935598 0.10680476 -0.18760036 -0.05669991
000080 fd 9c 89 3e af ed be bc e6 38 12 3e 57 cf de 3c
       0.26877585 -0.023306696 0.14279518 0.027198477
000090 d9 b5 15 be f0 b7 8c bc ae 2e f8 bd 2a af 1e 3d
       -0.1462015 -0.017177552 -0.121182784 0.03874127
0000a0 35 7d a2 3d 0a 2f 5d 3e 60 e3 85 3d 27 96 9e 3e
       0.079340376 0.21599975 0.06537509 0.30973932
0000b0 08 25 c0 3e 6f 58 e6 3d 97 b3 36 3d 57 af cc bd
       0.37528253 0.11247336 0.044604864 -0.09994381
0000c0 7a fa a2 3e e6 f8 97 3d 27 ea f6 bd 41 af ec 3c
       0.31831723 0.074205205 -0.1205638 0.028892161
0000d0 1d 4f 15 be 3d a0 71 be 6c 8b 3b 3e 5e 3c 27 bc
       -0.1458096 -0.23596282 0.18314904 -0.010207264
0000e0 13 2f 9d 3d d3 90 16 be 5f 3d 26 be a0 b7 5c be
       0.07674994 -0.14703684 -0.16234349 -0.21554422
0000f0 1e 77 21 3f 9e 51 64 3e be c0 ba 3e 1d d0 80 bd
       0.63072383 0.2229676 0.36475176 -0.062896945
000100 1c 40 24 bd 07 0f 9f 3d d4 03 34 be fd 4a d1 be
       -0.040100202 0.07766538 -0.17579585 -0.40877524
000110 63 8f 9f bd 64 44 97 be b2 b6 5a 3a cc fa 51 3d
       -0.07791021 -0.29544365 0.0008343264 0.05126457
000120 ca 29 0c be 0d 84 26 be 52 29 8e be b0 b7 51 3e
       -0.13687816 -0.16261311 -0.277659 0.20480227
000130 71 01 12 3d 6c ca 44 3e dd f7 0d 3e 82 87 af bd
       0.035645906 0.19217843 0.13864084 -0.08570768
000140 d7 d5 a3 bd 6d df f9 be 74 21 ef be 00 b7 ef be
       -0.07999771 -0.48803273 -0.4670521 -0.46819305
000150 12 57 7c 3c 39 07 db bd c1 2d c6 bd a9 81 1d bf
       0.015401619 -0.10694737 -0.096766956 -0.6152597
000160 cc ba 11 bf cd dc d5 be 2d 37 f7 bc 6f 2a b0 bc
       -0.56925654 -0.4177002 -0.030177677 -0.021504609
000170 d5 f6 67 bd ab 0b de 3d 9a 1b 54 3e e0 87 9b 3c
       -0.05663188 0.10842069 0.20713654 0.018985689
000180 79 aa 18 bc f5 8a b6 bd 87 51 51 be a4 4d 03 3e
       -0.009317988 -0.08913223 -0.20441256 0.12822586
000190 4a 4f 70 b9 f4 32 d8 bd 82 ef 4f 3e 34 6c b2 3c
       -0.00022917721 -0.105565935 0.20306209 0.02178011
0001a0 ac b0 bf 3c fd 02 82 bf c3 a9 ce be bb 46 d4 be
       0.023399673 -1.0157162 -0.40363893 -0.41460213
0001b0 db 79 8b bd ea 5b 02 be 5f da c7 3c 6e cc b9 bd
       -0.068103515 -0.12730375 0.02439612 -0.09072195
0001c0 d6 ed 4f bd 97 bc 2a bc c1 56 1c 3d 54 b6 e4 bd
       -0.050763927 -0.01042094 0.038168672 -0.11167589
0001d0 7d 9d 10 be ab 8d ab bc 04 51 42 3c bf 1a b5 3e
       -0.14122577 -0.020941576 0.011860136 0.35371968
0001e0 2e bd f2 3d 7a 64 22 3d fc 47 a0 3e 54 f5 b1 3d
       0.118524894 0.039646603 0.3130492 0.08689371
0001f0 54 5f 39 3e f4 e3 54 bd ac 79 39 be 30 02 0f be
       0.18102771 -0.051975206 -0.1811282 -0.13965678
000200 a1 67 80 bb 7f 1a f7 3e 00 e8 26 3e 5d 5e 3f 3e
       -0.0039186035 0.48262402 0.16299438 0.1868834
000210 f7 d7 cb 3e 35 5c 80 3e 3f 1e 04 bb c9 b7 87 3e
       0.39813206 0.25070348 -0.002015963 0.26507404
000220 40 f4 07 3e 38 5a c2 3d e9 fb a1 3d c2 aa b4 bd
       0.13276768 0.09489864 0.07909376 -0.08821632
000230 2e bc 11 3e 76 f5 cd 3c d0 1c b7 3d e2 bc 01 bc
       0.14231941 0.025141459 0.089410424 -0.007918568
000240 f5 d2 01 bd a8 2b 9b 3b 42 3d 12 3e 83 ec 9b 3e
       -0.031695325 0.004735429 0.1428118 0.30453882
000250 a2 1b 94 3e 53 44 00 3e 24 d4 ed 3d 3a 83 dc 3c
       0.28927332 0.12526064 0.11612728 0.026918042
000260 b7 a1 83 bd f5 20 b7 3e 41 ea 22 3e 3e 45 25 3d
       -0.06427329 0.35767332 0.15909673 0.040349238
000270 10 01 28 bc 02 c2 0d bc 08 6f ce bd 0c a8 28 3f
       -0.01025416 -0.008652212 -0.10079771 0.6588142
000280 60 5e 22 3d 4f e8 cc 3e 34 0c da 3d 22 f5 53 3e
       0.039640784 0.40020987 0.10646859 0.2069898
000290 8d c3 37 3e f3 33 46 be d6 e5 4b 3d 31 05 87 3c
       0.1794569 -0.19355755 0.049779736 0.016481968
0002a0 9f dd 87 3e ba 67 bc bd 92 12 4d bd f1 d4 d4 be
       0.2653627 -0.09199472 -0.05006654 -0.4156871
0002b0 65 17 6c be f8 74 29 bf e9 ad 80 be 5b 7f 85 be
       -0.230558 -0.66194105 -0.25132683 -0.26073727
0002c0 99 09 e9 be 31 a4 52 bf a4 ff ef be 2e fd 35 be
       -0.45515135 -0.82281786 -0.46874726 -0.17772362
0002d0 0b d8 e5 be 3f 22 d4 be 02 6e e9 be b3 d6 78 3e
       -0.4489139 -0.41432378 -0.45591742 0.24300651
0002e0 c0 3c 9b 3e 6f d3 3f 3e 8d ae 89 bf c9 0e f3 be
       0.30319786 0.18733 -1.0756394 -0.47472218
0002f0 b4 af 02 be 4a 56 42 3f f5 0b 78 3e 81 e6 9e 3e
       -0.12762338 0.75912917 0.24223311 0.31035236
000300 52 82 66 be bb 72 4c bc 64 d8 59 be ab e3 2d 3e
       -0.22510651 -0.012478526 -0.21273953 0.1698138
000310 7f 87 fd bc 5d 70 48 3d 27 95 cc bd 40 22 1a be
       -0.030948399 0.048935283 -0.09989386 -0.15052128
000320 de 03 45 3e 32 7d 5c 3e c5 10 c4 bd 42 95 57 3c
       0.19239756 0.21532133 -0.09573511 0.013158144
000330 9f b2 a9 bd 84 33 7b bc 1d 0d f1 3c 75 31 a8 3d
       -0.082860224 -0.0153321065 0.029425198 0.08212558
000340 7f ef bb bd 5c 4f 18 bd 64 d4 24 bf 0c 61 12 bf
       -0.0917654 -0.037185058 -0.6438658 -0.5717933
000350 e7 de 0a bf 60 aa f6 be a1 e1 92 be be b3 0b be
       -0.5424637 -0.4817686 -0.28687766 -0.13642785
000360 73 ec 5c 3d b8 cd 1f bd 62 99 c1 be 97 5c 1c 3e
       0.053936433 -0.039014548 -0.37812334 0.15269695
000370 58 f1 57 3c de a5 cf 3d 09 01 1d bd 01 14 11 3e
       0.013180099 0.101390585 -0.038331065 0.14167787
000380 eb b5 43 3e 14 85 9f bd 9a d3 6d 3c ad fe d4 3d
       0.19112365 -0.077890545 0.014515782 0.10400138
000390 7b b6 98 3e 88 dd 23 3e 4c a9 98 3d 66 4c 95 3c
       0.29826722 0.16002476 0.07454166 0.018224906
0003a0 56 58 56 bd 28 fe 04 3d 82 d5 95 be 9f d5 c1 be
       -0.052330337 0.032468945 -0.29264456 -0.37858292
0003b0 66 cd a7 be 2e e9 80 bc b8 0d 95 3d ec f8 a7 3e
       -0.32773894 -0.015736189 0.07278007 0.328071
0003c0 a0 5c 69 3e bc 1f 62 3d 1e c3 db 3d 05 13 3d bf
       0.2278924 0.055206046 0.10730575 -0.73857147
0003d0 f7 95 7d be 00 a8 00 be 38 ef 3c 3a 64 7f 01 be
       -0.24764238 -0.12564087 0.0007207277 -0.12646252
0003e0 f3 8a 78 be f5 ff b1 be 91 5c 36 bd 1d 9c c0 bc
       -0.24271755 -0.34765592 -0.044521872 -0.02351194
0003f0 f3 21 58 bd 3c 47 6b be c2 7f fc bd f6 26 45 3e
       -0.05276675 -0.22976393 -0.12329055 0.19253144

bias f4 [64]
000000 e0 20 75 bc 32 e1 a4 bc af af 3a 3d 75 0f 8c bb
       -0.014961451 -0.020126913 0.0455777 -0.0042743036
000010 cb eb 64 bc 74 d2 27 bd 3b 35 67 bc 9e 53 49 bd
       -0.013972233 -0.040972188 -0.014111812 -0.04915201
000020 39 fb 36 3d f6 1b 89 bb 7a 35 11 bd 39 da 1c 3d
       0.04467318 -0.0041842414 -0.03545139 0.03829405
000030 2b da 38 bc f0 bf c1 bc a6 24 b7 bc be b6 e0 b9
       -0.011282484 -0.023651093 -0.022356343 -0.00042860763
000040 f0 e0 2d bd a2 ee e9 3c 17 00 f6 bc a7 3c 02 bc
       -0.042450845 0.028556172 -0.03002934 -0.007949031
000050 df 4f 08 3d 80 c5 c9 3c 15 84 43 3d 5a 53 8d 3c
       0.033279296 0.024630308 0.047733385 0.01725166
000060 ff 28 58 3d 1b 94 87 bc 7e 9d 2b bd 8d 2a 62 3c
       0.052773472 -0.016550114 -0.041898243 0.01380409
000070 60 39 27 3a da 94 0a bd 0b 24 13 bd 01 d3 55 3c
       0.0006379094 -0.033833362 -0.035923045 0.0130507955
000080 18 be 8c 3c 8a b7 11 3d 05 60 e0 3c bf 7e 19 bd
       0.017180488 0.035575427 0.027389536 -0.03747439
000090 0f a3 4d 3c 86 b6 5c 3d f2 1a 89 3b 1d bc c9 3c
       0.012551083 0.053885005 0.0041841203 0.024625832
0000a0 6a 27 b2 3c 70 b6 fa 3c da b4 9d bb e0 3b d1 bc
       0.02174731 0.030604571 -0.004812819 -0.025541246
0000b0 3c e4 1f bc 66 4a 0d 3d 3a 8c 60 3b 2c 6c 87 3c
       -0.009759005 0.03449478 0.003426327 0.016531073
0000c0 bd a0 53 3d d7 26 83 bc c9 28 a4 3c 0c 48 28 bd
       0.051666964 -0.016009731 0.02003898 -0.041084334
0000d0 61 0d 09 3d 5a 11 18 bd 54 f0 f2 3c 4d 42 eb 3c
       0.033460025 -0.037125923 0.029655613 0.028718138
0000e0 eb 76 d6 bc 60 7a 61 3d 22 23 4c bc ff 16 0b 3d
       -0.026179751 0.055048347 -0.012459548 0.033957478
0000f0 d2 e7 14 3d f4 23 8b bc bf 41 a7 bc 95 c0 e6 3b
       0.036353894 -0.016984917 -0.020417092 0.0070420005

weight f4 [64]
000000 48 79 5f 3f 39 7b 8c 3f fa 56 9b 3f b1 d4 32 3e
       0.87294436 1.0975105 1.2135918 0.17463948
000010 53 8d c4 3e a3 c1 6a 3f 56 e6 85 3f 80 bf 4c 3f
       0.38389072 0.91701716 1.0460918 0.79979706
000020 e5 7a 4d 3f da 63 80 3e 85 e3 8a 3f 88 ac 31 3f
       0.8026565 0.2507618 1.0850683 0.69403887
000030 b8 d8 95 3f 1b 12 8f 3f 5b a9 46 3f f9 aa 0f 3f
       1.1706762 1.11774 0.77602166 0.5612026
000040 1b c9 52 3f 25 e0 94 3f 03 4f 9a 3f 0a 21 4d 3f
       0.8233811 1.1630903 1.2055362 0.8012854
000050 96 12 56 3f 51 15 9b 3f 47 0a 65 3f cc df 89 3f
       0.8362211 1.211588 0.89468807 1.0771422
000060 98 84 98 3f 8e f5 2e 3f 87 1f 08 3f a1 91 9b 3f
       1.1915464 0.68343437 0.53173107 1.2153817
000070 8b 05 7c 3f 19 8c f3 3e 8f 1c 59 3f 55 85 31 3f
       0.9844596 0.47567824 0.848092 0.69344074
000080 c2 51 1f 3f 2a 60 56 3f c0 7c 8b 3f 45 a8 89 3f
       0.6223413 0.83740485 1.0897446 1.0754477
000090 87 b9 a8 3f 9d 52 05 3f de 4e 68 3f 44 c8 8a 3f
       1.3181618 0.5207918 0.9074534 1.0842366
0000a0 79 cb 99 3f 74 e3 88 3f 39 41 7f 3f 40 97 81 3f
       1.201522 1.0694413 0.99708897 1.0124283
0000b0 fb ba 6a 3f 81 2c 94 3f f8 a4 58 3f 02 1b 87 3f
       0.9169156 1.1576082 0.8462672 1.0555117
0000c0 bc 96 97 3f ea b0 03 3f f2 88 7c 3f 9b ca 4e 3f
       1.1842875 0.51441824 0.9864646 0.807779
0000d0 65 b1 5b 3f 61 6a c5 3e 42 2e f8 3e 4b d9 2f 3f
       0.8581756 0.38557723 0.48472792 0.6869094
0000e0 2f 02 8a 3f 45 28 6d 3f 83 97 0b 3f 7e 81 97 3f
       1.0781916 0.9263957 0.54528064 1.1836393
0000f0 c1 54 21 3f d0 8f 92 3f 58 5a 37 3f 18 f2 76 3f
       0.6301995 1.1450138 0.7162223 0.96463156

bias f4 [64]
000000 d2 fb 9a be 71 59 bf be 4a ab ea be 1f b3 0b 3d
       -0.3027025 -0.37372926 -0.45833808 0.03410637
000010 3c c9 14 bf 39 87 9c be 4e da b9 be c8 7f 87 be
       -0.5811956 -0.30571917 -0.36299366 -0.26464677
000020 df bb 87 be 07 7a a0 bd ac 88 d4 be 76 38 7d be
       -0.26510522 -0.07835775 -0.41510522 -0.2472857
000030 c0 32 01 bf bd 7c f1 be 32 9d 72 be 0c ed 9f bd
       -0.50468063 -0.4716548 -0.23692778 -0.07808885
000040 59 61 8a be 92 13 15 bf fc 38 17 bf 39 6f 91 be
       -0.27027395 -0.58232987 -0.59071326 -0.2840517
000050 26 bd 95 be 8a ac 0d bf d4 55 6b be b1 dd 93 be
       -0.2924587 -0.553414 -0.2298196 -0.28880075
000060 ea a1 03 bf f7 54 69 be 13 3e 33 be ee be e4 be
       -0.51418936 -0.22786318 -0.17504148 -0.44676918
000070 9f 88 db be 4b 82 08 bf a2 2a b4 be e4 d9 92 be
       -0.4287767 -0.5332381 -0.35188776 -0.28681862
000080 83 29 82 be a4 01 b8 be fe b4 98 be 1e c7 e4 be
       -0.25422296 -0.35938752 -0.29825586 -0.44683164
000090 bd ed 1d bf 1d 04 0e be 6a d8 a5 be 50 4a ba be
       -0.61690885 -0.13868757 -0.32391673 -0.3638482
0000a0 54 dc d4 be 70 fa c2 be 41 4d e3 be 86 fe a6 be
       -0.41574347 -0.38081694 -0.44394878 -0.3261606
0000b0 b2 bc a2 be de 2f d8 be 25 57 92 be 98 06 8d be
       -0.31784588 -0.4222402 -0.2858211 -0.27544093
0000c0 4d 95 c0 be 3c 49 42 be 55 2e c1 be f7 9a 97 be
       -0.37613907 -0.18973249 -0.3773066 -0.29610416
0000d0 4b 1c 93 be 11 be b8 bd 76 3a 05 be 1d a8 71 be
       -0.28732523 -0.09020627 -0.13010582 -0.23599286
0000e0 10 f1 a9 be 9c 9e 97 be 0f 2e 34 be aa 60 ee be
       -0.3319173 -0.29613197 -0.17595695 -0.46558124
0000f0 35 ec 61 be 0d ef e3 be db ec 8f be 5f e9 d3 be
       -0.22062762 -0.4451832 -0.28110394 -0.41388986

running_mean f4 [64]
000000 c9 2e 7c c0 f8 dd de c0 a5 c5 de c0 13 19 f1 3f
       -3.9403555 -6.964596 -6.9616265 1.8835777
000010 87 68 1a 40 8e 43 9a c0 f5 53 d8 c0 53 2e 98 c0
       2.4126298 -4.8207464 -6.7602487 -4.755655
000020 f6 11 2e c0 5a ab 4e 40 8b 93 d2 c0 05 f1 57 c0
       -2.7198462 3.2292085 -6.5805106 -3.3740857
000030 3c 2c e0 c0 cc 78 b2 c0 d6 d8 6c c0 09 9e 80 bf
       -7.0053997 -5.5772457 -3.7007346 -1.0048229
000040 ad a5 71 c0 96 44 d4 c0 6c 6b 00 c1 7c d7 7a c0
       -3.775737 -6.6333723 -8.026226 -3.9194021
000050 7c 4c 8a c0 8a 00 ba c0 50 09 8b c0 e1 73 9f c0
       -4.3218365 -5.812566 -4.344887 -4.9828954
000060 68 c3 ba c0 ab b7 6b c0 83 41 1c c0 5b 74 f2 c0
       -5.8363533 -3.6830852 -2.4414985 -7.5767035
000070 65 1d bc c0 d6 13 37 40 e6 57 4b c0 96 d9 5d c0
       -5.878588 2.8605857 -3.17724 -3.4664054
000080 ea 60 15 c0 45 6a 51 c0 bb 22 ac c0 b6 62 a3 c0
       -2.3340402 -3.2721112 -5.3792396 -5.1057997
000090 ee 9f 01 c1 fc d1 c7 bf 30 39 97 c0 5b 3e b3 c0
       -8.101545 -1.5610957 -4.725731 -5.6013618
0000a0 2e 02 b1 c0 21 c9 ad c0 d3 cd 83 c0 04 aa ba c0
       -5.531516 -5.430802 -4.118875 -5.833254
0000b0 5f f6 8e c0 d0 fa d1 c0 75 2e 5a c0 b1 7b a3 c0
       -4.4675746 -6.5618668 -3.4090855 -5.108849
0000c0 8c b4 f4 c0 0e c1 e7 bf c3 8a 99 c0 50 42 52 c0
       -7.6470394 -1.8105791 -4.7981887 -3.2852974
0000d0 bc dd 3d c0 4c ec 69 3f b3 a1 c9 bf 9b 1c 49 c0
       -2.9666586 0.91376185 -1.5752472 -3.142371
0000e0 6e e7 a8 c0 b8 fb a7 c0 32 7b 12 c0 0e 07 dc c0
       -5.2782507 -5.2494774 -2.2887692 -6.875861
0000f0 8d 7b 11 c0 f4 8a eb c0 c5 90 3e c0 71 d8 87 c0
       -2.273166 -7.360712 -2.977586 -4.245171

running_var f4 [64]
000000 6f fc bb 42 92 f0 4c 43 d3 05 3f 43 ff 19 f6 41
       93.993034 204.93973 191.02275 30.762693
000010 75 a7 10 42 0b 5b 44 43 0d fe 25 43 f8 c5 bc 42
       36.163532 196.35564 165.99239 94.38666
000020 1b ab d9 42 d4 9a 4c 42 ab 37 17 43 99 db 6c 42
       108.83419 51.1512 151.21745 59.21445
000030 3e 7e 24 43 ba e0 08 43 8b 9b 9d 42 fe c2 b1 42
       164.49313 136.87784 78.803795 88.880844
000040 01 69 c7 42 ee 65 34 43 d2 ee 55 43 fc bf 98 42
       99.705086 180.39816 213.93289 76.37497
000050 0e d5 d1 42 98 55 0d 43 d0 9a 26 43 2d c9 30 43
       104.91612 141.33435 166.60474 176.78584
000060 4d e7 0e 43 31 21 94 42 09 30 1d 42 8a 0c 6c 43
       142.90352 74.06483 39.29691 236.04898
000070 29 4c 17 43 b5 b7 d2 42 87 fe 89 42 5c 5f a6 42
       151.2975 105.3588 68.99712 83.18625
000080 df 9b 7e 42 5a 90 60 42 b1 66 83 43 51 ad d6 42
       63.652218 56.14097 262.80228 107.33851
000090 2a 3d 82 43 af cc 8c 42 f6 76 c8 42 50 f8 1c 43
       260.47784 70.39977 100.232346 156.96997
0000a0 e7 a5 36 43 b0 c7 21 43 b8 63 8d 42 e2 8f 3a 43
       182.64806 161.78003 70.69476 186.56204
0000b0 84 df 0d 43 02 83 12 43 7d 87 c6 42 99 ae 65 43
       141.87311 146.51175 99.264626 229.68202
0000c0 cd b0 8e 43 91 27 22 42 4d d8 01 43 63 88 70 42
       285.38126 40.53864 129.84492 60.13319
0000d0 5c e4 bc 42 b7 63 45 42 9e 76 4b 42 f0 43 a7 42
       94.446014 49.347378 50.865837 83.63269
0000e0 c2 b0 17 43 f5 09 20 43 b4 22 20 42 e9 bd 1e 43
       151.69046 160.0389 40.03389 158.74184
0000f0 80 bb 29 42 e4 b4 45 43 38 db 5e 42 3d 10 9c 42
       42.433105 197.7066 55.71408 78.031715

weight f4 [32, 64, 3]
000000 08 da b3 be e7 55 28 3c de 96 8f 3d f2 8e 09 bf
       -0.35127282 0.010274387 0.070111975 -0.5373374
000010 35 0f 7d be e1 c3 4e bd 70 65 4c bd 12 e5 1a bd
       -0.24712832 -0.050479773 -0.049901426 -0.037816115
000020 85 29 9d bc 16 98 53 bc 6f 02 14 3d 7f 41 be 3d
       -0.019184837 -0.012914678 0.036135133 0.09289836
000030 b9 7c b2 bd 3a 58 4d bd ff a4 a4 bc 8d c8 2d be
       -0.08715195 -0.050132968 -0.020098208 -0.16971035
000040 18 5c 3a 3d 29 7c aa 3e 10 45 1c be d6 89 98 bd
       0.045497984 0.33297852 -0.1526072 -0.07448165
000050 50 fa 00 bd 77 70 53 be c6 41 e0 bd bb d8 b2 be
       -0.031488717 -0.2064837 -0.10950045 -0.34930977
000060 69 c0 92 be f8 e9 ea bd b4 15 4c 3d 72 c0 90 bd
       -0.28662422 -0.11470407 0.049825385 -0.07067956
000070 29 0f b1 3c f8 a7 68 3d a9 59 f8 3e 11 84 c1 3e
       0.021613674 0.056800812 0.48505905 0.3779607
000080 dd 27 12 3f b7 52 11 3d 0f 71 3f 3d a8 2d 2f 3e
       0.57092077 0.035479274 0.04673868 0.1710726
000090 8f 51 16 bf ed 4e 7e be 49 5e 91 3d 89 f2 e7 3e
       -0.587182 -0.24834795 0.070980616 0.45302227
0000a0 3f da 8e 3e 7e 1f 43 3e 05 1e a1 be 4b 66 19 be
       0.27900884 0.19054982 -0.31468216 -0.14980428
0000b0 25 53 f0 be ef ff c9 3d 44 b2 b9 3d 59 df 21 3e
       -0.46938434 0.098632686 0.090672046 0.15807857
0000c0 23 53 11 bf 76 48 25 be 95 ef fa bd 9e d4 d5 be
       -0.5676748 -0.16140923 -0.12252728 -0.41763777
0000d0 9e 20 84 bd cf bc 55 3b a7 fd 08 be 5c 22 0c be
       -0.06451534 0.003261376 -0.1337801 -0.13684982
0000e0 30 65 90 3d 25 e2 33 be ea 3e 6c bc e0 92 28 3d
       0.0705055 -0.17566736 -0.014419297 0.041155696
0000f0 b4 3f 33 be 92 9c 00 3c b2 53 ef bc fa 96 8e 3d
       -0.1750477 0.007849829 -0.029214714 0.0696239
000100 f9 d1 c0 3e 8c 78 c6 3e 0f 9d c3 be ce ec 21 bc
       0.37660196 0.38763845 -0.38205764 -0.009883119
000110 d0 34 9e 3c ca bf 3b bf dd ff b3 be fe ad a3 be
       0.019312292 -0.7333952 -0.35156146 -0.31968683
000120 ea dd 85 bd 51 29 01 3e 18 06 ec 3d c4 28 8e 3e
       -0.065364674 0.12613417 0.115246 0.27765477
000130 b0 16 e9 3c 36 a8 ff 3d da 4b bb 3e c6 46 a7 3d
       0.028453201 0.124832556 0.36581308 0.08167796
000140 0b d4 52 3e a1 f9 5f be 1e c3 d5 3d 16 36 93 3e
       0.205887 -0.2187257 0.10437606 0.28752202
000150 f3 92 76 bc 07 bc d8 3d 6b 60 7e 3d 48 9f 69 be
       -0.015049684 0.10582738 0.06210367 -0.22814667
000160 bb d1 6b 3d e2 09 ba 3d ee 73 91 3d 85 fc 08 be
       0.05757306 0.09083916 0.0710219 -0.13377579
000170 94 04 49 bd 07 d5 f2 be 31 0f c8 bd fb 9e c5 bd
       -0.04907663 -0.47428152 -0.097685225 -0.09649464
000180 53 ef ec be 80 8d 0f be f1 ce aa bd 1a 2a 48 be
       -0.4627634 -0.14018822 -0.08340252 -0.1954731
000190 cd 7e 3f be f4 cc 9d be 2d 33 e5 be 70 27 12 be
       -0.18700714 -0.3082043 -0.44765607 -0.14272857
0001a0 94 a6 97 bd cf b4 4c be 83 52 1d be 6b f4 cc bc
       -0.07404819 -0.19990848 -0.15363507 -0.025018891
0001b0 0c cd b4 bd 88 48 a1 3d fc 92 33 3e 95 4e 3b 3e
       -0.08828172 0.07875162 0.17536539 0.18291695
0001c0 23 e3 8d 3d cc 17 d4 3d bf e0 86 be a4 a3 14 3d
       0.069280885 0.103561014 -0.26343343 0.036288872
0001d0 33 50 73 3c 6a 12 9f 3e eb aa a6 3d 47 8c 68 3b
       0.014850664 0.31068736 0.08138069 0.0035484002
0001e0 aa 8b ab 3d 6a cd 0f 3c ab cf c0 bd dc c7 31 bf
       0.08376248 0.008777002 -0.094146095 -0.69445586
0001f0 06 51 86 bd ee 9f 48 3e 2a bb fc 3d 00 75 52 ba
       -0.06558423 0.19592258 0.12340386 -0.00080282986
000200 a6 f3 ed 3d d2 b9 37 be 25 ca 1d 3e b8 ca 87 3e
       0.11618738 -0.17941979 0.15409143 0.2652185
000210 3c 23 f1 be ee d0 f1 bb 6e d9 2a 3e 8e a4 d0 be
       -0.47097194 -0.0073796427 0.16684505 -0.40750545
000220 04 16 96 be ec 3a b9 be b5 72 95 3e 47 24 b7 3c
       -0.29313672 -0.36177766 0.29189077 0.022356166
000230 51 4e 4c 3e 37 af 5d bf 44 42 b6 be 23 3f c0 bd
       0.1995175 -0.8659548 -0.35597432 -0.093870424
000240 49 30 a1 3e cd dc a0 3d 2e 55 3a 3e 3f 18 56 be
       0.3148215 0.078546144 0.18196556 -0.20907687
000250 fc 27 12 bd 68 1f bc bd 1f 96 27 3e ad 8a 11 3e
       -0.035682663 -0.09185678 0.1636586 0.14213057
000260 44 cb 8e 3e fb 78 b8 3d 2c 8c 17 3c b8 61 85 3d
       0.27889454 0.0900745 0.009249728 0.06512779
000270 ff 38 b8 3e 0b c2 cb 3d db e6 4f 3d a3 9c 57 be
       0.35980985 0.0994912 0.05075727 -0.21055846
000280 28 ee b9 bd ca b1 ab bd 88 bf ac 3a 21 2b b9 3b
       -0.09078628 -0.0838352 0.0013179639 0.0056508933
000290 c9 77 23 3e 10 c5 9a be 5e 5c 19 be 83 af 9f bd
       0.15963663 -0.30228472 -0.14976642 -0.07797148
0002a0 f1 2b c9 3c af 8e 2c 3d 23 d2 d9 bc 71 1e d8 3d
       0.024557086 0.04212826 -0.026589459 0.10552681
0002b0 bc 6d 09 bd 8c 73 ef bc 3c 4f 31 3e 18 0a a6 3c
       -0.033551916 -0.029229902 0.17315382 0.020268485
0002c0 5e 0b f8 3d dd c7 02 bf ea 4d 71 be b8 3f 25 be
       0.12111543 -0.5108622 -0.23564878 -0.16137588
0002d0 e3 85 38 be 40 87 86 bd 30 72 4b be 0f 7b 03 be
       -0.18019824 -0.06568766 -0.19867778 -0.12839912
0002e0 71 bf a9 bd 79 28 22 bd fe 7b 2a be 7c e5 0e be
       -0.08288468 -0.03958938 -0.16648862 -0.13954729
0002f0 99 9f f5 bd 2e 81 8a be 3f ba c9 bd 57 23 5b be
       -0.119933315 -0.2705168 -0.09849977 -0.214002
000300 f2 8e de 3d 5e 4e 1b bd ac 1a 19 bd 66 4a 10 bf
       0.108671084 -0.037916534 -0.037378952 -0.56363523
000310 21 a8 92 be e8 39 a6 be 17 87 54 bf 30 3e a8 be
       -0.28643897 -0.32466054 -0.8301863 -0.32859945
000320 46 70 a5 bd ec 65 f8 bd 6c 4d a0 bd a8 46 d2 bc
       -0.08078055 -0.12128815 -0.07827267 -0.025668457
000330 f6 df 31 bd fb 94 72 bd f5 f3 db bc fe d9 65 be
       -0.043426476 -0.05922411 -0.026849726 -0.22446439
000340 11 e8 99 3b 86 a2 39 3e f5 93 03 be ac 85 e1 3d
       0.004696854 0.18128404 -0.1284941 0.11011824
000350 eb a7 15 3e 96 f0 08 3e e8 fe c4 3d a2 5e df bc
       0.14614837 0.13373026 0.09618932 -0.027266804
000360 c2 ce 34 3c 9c 57 f5 bd 38 64 cd bd d8 24 2f be
       0.011035623 -0.11979601 -0.10028881 -0.17103899
000370 b7 01 9c bc fa 0e 3f bd 29 e2 20 bf 66 3a 5e be
       -0.019043786 -0.046645142 -0.62845093 -0.21701965
000380 90 e3 0e be fe be 41 be e8 2b 5a 3b 81 4b 3f 3d
       -0.13953996 -0.18920514 0.003329033 0.046702866
000390 ba 93 17 bf e3 7c 5c be 93 7f 4b be d2 2f 00 bf
       -0.5920979 -0.21532016 -0.19872884 -0.5007297
0003a0 20 ed 29 be b3 5a 52 bc ed fe 8a 3e b5 6e 61 3e
       -0.16594362 -0.012839007 0.27147618 0.22014888
0003b0 68 de 68 3e 82 59 11 3e 61 4f d8 3d b7 19 79 3d
       0.22741091 0.14194301 0.10562015 0.06081554
0003c0 cb 0c 0a bc 51 6b 7d bd 63 57 9d 3c f7 c9 4f bf
       -0.008425902 -0.061869923 0.019206708 -0.8116755
0003d0 dd 52 6e be 83 01 02 bd c7 c0 2c bf 41 76 b0 be
       -0.23273797 -0.031739723 -0.67481655 -0.3446522
0003e0 17 3e 67 be 6a 55 11 bf de 2f 5f be fc 75 89 bd
       -0.22582279 -0.56770957 -0.21795604 -0.06711957
0003f0 15 fe 2c 3e 94 00 8c 3b 27 73 07 be 7d f0 08 bf
       0.168938 0.00427253 -0.13227521 -0.53491956

bias f4 [32]
000000 a4 eb 19 3c 7e a2 13 3d cb 24 74 3d 7b 2a cd bc
       0.00939456 0.036043637 0.0596054 -0.02504467
000010 e4 d8 ba 3a 90 06 3b bd 23 57 9e 3c 34 45 db bd
       0.0014255312 -0.045660555 0.01932866 -0.10706559
000020 f2 43 59 3c cd b5 c9 3d 79 b5 77 bc fc 1c 67 bd
       0.013260828 0.09849129 -0.01511895 -0.056424126
000030 5a 9f 00 bd e1 4e ba 3c 7c 70 82 bc 80 e7 ac 3b
       -0.03140197 0.02274269 -0.015922777 0.0052766204
000040 1d 5b e5 3d 3d c9 b8 bb 0c 68 b7 3c 80 07 71 bc
       0.11199019 -0.005639224 0.02238848 -0.014711261
000050 72 4d 45 3d fc 51 3f 3c b9 75 94 3d 3e 94 c2 bd
       0.04816956 0.011677261 0.07249016 -0.09500931
000060 d1 75 ea 3d d0 ff 23 3c d9 02 77 3d 08 2f b0 3c
       0.11448253 0.010009721 0.06030545 0.021506801
000070 9a 4d 0e 3e cd 10 8e 3c 8e 90 19 bd c0 bd d0 3b
       0.1389679 0.017341996 -0.037491374 0.006370276

weight f4 [32]
000000 91 b3 79 3f 1a bb 45 3f 43 fc a4 3f a7 3c 88 3f
       0.9753962 0.7723862 1.2889484 1.064351
000010 7d 9d 83 3f 7b a0 a4 3f 3d e6 80 3f 70 96 84 3f
       1.0282437 1.2861475 1.0070263 1.035841
000020 08 42 a6 3f 9b cc 9a 3f ed 1c 85 3f e2 91 b2 3f
       1.2988901 1.2093691 1.0399452 1.395077
000030 e7 ad 98 3f a0 ab 87 3f b9 e9 45 3f 52 b3 94 3f
       1.1928071 1.0599251 0.7730976 1.1617224
000040 f7 24 7a 3f 71 54 38 3f ed 82 c1 3f f5 b9 82 3f
       0.97712654 0.7200385 1.511808 1.0213
000050 0e 18 4a 3f 80 bd 42 3f a9 1a 7d 3f ce a1 a6 3f
       0.78942955 0.76070404 0.98868805 1.3018129
000060 49 4a 3f 3f 4e 85 99 3f dd d3 42 3f ef d0 8a 3f
       0.74722725 1.1993806 0.7610453 1.0845011
000070 f0 2c d9 3f a4 f3 7c 3f 23 49 88 3f 8f b5 a9 3f
       1.6966839 0.98809266 1.064732 1.3258532

bias f4 [32]
000000 d9 ea fd be 7d f5 cf be 7b c8 83 3d 5b a9 b8 3d
       -0.49593237 -0.4061698 0.06434723 0.09016677
000010 2b 74 91 be 88 0b a9 be 1c b9 83 bb 60 1d 0a be
       -0.28408942 -0.3301661 -0.0040198695 -0.13487768
000020 36 02 05 be ad 98 7a be e0 fa 49 be 36 23 31 3e
       -0.12989125 -0.24472304 -0.19724607 0.17298588
000030 a1 ef 87 3b b7 28 bc be a0 06 af be 67 f4 2b be
       0.004148439 -0.36749813 -0.34184742 -0.16792451
000040 14 90 0b be 6b 14 00 bf 7b b3 27 bf 04 63 26 be
       -0.1362918 -0.50031155 -0.6550824 -0.16248709
000050 60 1a 8d be 13 d8 02 bf 7d 0d d2 be d6 0a 11 bd
       -0.27559185 -0.51110953 -0.41025916 -0.035410725
000060 b7 b4 a4 be a5 60 81 be fd 8f 09 be 4a 79 80 be
       -0.32169124 -0.25269046 -0.13433833 -0.25092536
000070 16 66 8e be 1f 7a 94 be d1 5c 01 be 47 dd 57 bb
       -0.2781226 -0.2899942 -0.12633063 -0.0032938288

running_mean f4 [32]
000000 b2 9a 14 bf 47 4d 91 bf 6c 55 2b be 8b eb 9c 3c
       -0.58048546 -1.1351708 -0.16731805 0.019155284
000010 f3 11 0d 3e 9b a2 2b bf 7a 2c f9 be 4f e4 1b bf
       0.13776378 -0.6704499 -0.48666745 -0.60895246
000020 86 6b 25 be 53 ed 77 be 38 32 43 be f2 0a 08 be
       -0.16154298 -0.24211626 -0.19062126 -0.13285425
000030 c9 b3 a6 be 25 bd de be 27 2f 03 bf 8f 02 b9 be
       -0.3255904 -0.4350368 -0.51243824 -0.36134765
000040 d1 2d 61 be 79 c5 63 bf e0 f9 68 be ec 32 01 be
       -0.21990134 -0.88973194 -0.2275157 -0.12617081
000050 53 86 8a bf 87 fa 31 bf 1d 16 ff be 66 98 4a be
       -1.0822242 -0.695229 -0.4982156 -0.19784698
000060 67 0e c0 be 85 43 38 bf 67 06 3a bf 09 91 67 bd
       -0.37510988 -0.71978027 -0.7266602 -0.0565348
000070 6a e9 1e 3d 77 fa c8 be e1 d7 24 3f 8c ae 6b 3d
       0.03879682 -0.3925359 0.64391905 0.057539508
