UI_CNN.model (torch, 159670 bytes, 20 tensors)

weight f4 [128, 8, 5]
0	0x3e4ce841	0.20010473
1	0xbe5226c7	-0.20522605
2	0x3ce21cfc	0.027601711
3	0x3e28d3e3	0.16487078
4	0xbf1f98b6	-0.62342393
5	0x3e2d1be7	0.16905175
6	0x3d3b8026	0.04577651
7	0x3e666e8d	0.2250311
8	0x3ee062c0	0.4382534
9	0xbf252e9a	-0.64524233
10	0xbb44cc8b	-0.0030029144
11	0x3e40c852	0.18826416
12	0x3c22af35	0.009929468
13	0x3d1565ca	0.036474027
14	0x3f01d252	0.5071155
15	0xbd1d44a2	-0.03839553
16	0x3d80fd58	0.062983215
17	0xbd013dc1	-0.031553034
18	0x3d96534c	0.07340106
19	0xbd7a7034	-0.06114216
20	0xbe7f6e4f	-0.24944423
21	0xbe6bfda1	-0.2304597
22	0xbe303c4c	-0.17210501
23	0xbe2861f0	-0.1644361
24	0x3ef30557	0.4746501
25	0xbb71501a	-0.0036821426
26	0xbe8c1447	-0.2735922
27	0xbf67d531	-0.9055968
28	0x3f8e7570	1.1129589
29	0xc01d1e22	-2.4549642
30	0x3fd2c4bd	1.646629
31	0x3ef1a5fb	0.47196946
32	0x3ea407f1	0.3203731
33	0x3fce646f	1.61244
34	0xc09a87f9	-4.829098
35	0x3d762bf0	0.060100496
36	0x3e035827	0.12826596
37	0x3e260f97	0.16216885
38	0x3c725e18	0.0147929415
39	0xbd539c39	-0.051662657
40	0xbdc4207c	-0.095765084
41	0xbba58382	-0.0050510773
42	0x3d4f81eb	0.05066101
43	0x3ce9fa59	0.028561758
44	0xbe025e32	-0.12731245
45	0x3eaf2633	0.3420883
46	0x3eafbedf	0.3432531
47	0xbdad3d1a	-0.0845892
48	0x3e632c7c	0.22184938
49	0x3f026280	0.5093155
50	0x3c84e541	0.016222598
51	0xbe6ebe28	-0.23314726
52	0x3e39fa2d	0.1816184
53	0x3e9071cf	0.2821183
54	0xbee1ab93	-0.44076213
55	0xbd792428	-0.060825497
56	0x3eaf16b2	0.34197003
57	0x3db7b92d	0.08970866
58	0x3ed0f2bc	0.40810192
59	0x3eebab5f	0.46029183
60	0xb98ac427	-0.00026467556
61	0x3e376e39	0.1791314
62	0x3ea23213	0.3167883
63	0xbe01f4f3	-0.12691097
64	0xbe55f28f	-0.2089331
65	0x3f8d1b9a	1.1024048
66	0x3f9ec1e3	1.240292
67	0x3e372af0	0.17887473
68	0xbfdc75a7	-1.7223405
69	0xc0002f1d	-2.0028756
70	0x3f848a76	1.0354755
71	0x3f1ca8db	0.61195153
72	0x3f303bb2	0.6884109
73	0xbfb93f6a	-1.4472477
74	0xbf861235	-1.0474306
75	0xbfb83c1e	-1.4393346
76	0xbf69711b	-0.9118821
77	0xbede5627	-0.43425104
78	0x3fdf26ed	1.7433754
79	0x3fd6b4ba	1.6773903
80	0x3b9f8015	0.0048675635
81	0x3c9aab2f	0.018880455
82	0xbd875aeb	-0.06609138
83	0xbd71d91b	-0.05904494
84	0xbd837e3b	-0.06420561
85	0x3d04da15	0.03243454
86	0x3cc3d849	0.023906844
87	0x3d0e12c7	0.034685876
88	0x3d5a7b07	0.053339984
89	0x3dae6667	0.085156254
90	0x3ddead9c	0.10872957
91	0xbc4fc9c1	-0.012682379
92	0xbdb0275a	-0.08601256
93	0xbe1d4c03	-0.15361027
94	0x3e584ddc	0.21123451
95	0xc00e1419	-2.2199767
96	0xbe6c9047	-0.23101912
97	0xbf5f1150	-0.8713579
98	0xbf627b2d	-0.884692
99	0xc0b44a4b	-5.634069
100	0x3c8876b9	0.016658174
101	0xbe1c9c15	-0.15293916
102	0xbd4647e0	-0.04840839
103	0xbe5eb041	-0.21746923
104	0x3e6331cd	0.22186966
105	0x3e41bd82	0.18919948
106	0x3e3787fb	0.17922966
107	0x3e060bfa	0.13090506
108	0x3e84b967	0.259227
109	0x3ee28939	0.44245318
110	0xbdb7ae9a	-0.089688495
111	0x3b1e1897	0.0024123543
112	0xbd8ce6a9	-0.068799324
113	0xbca70189	-0.020386474
114	0x3c38653a	0.011254603
115	0x3dbe09b1	0.09279192
116	0x3cb98729	0.022647457
117	0x3d93ddd8	0.07220048
118	0xbd10156f	-0.03517669
119	0xbd304c74	-0.04304166
120	0x3c8d8478	0.01727508
121	0x3dd862b3	0.105657004
122	0x3ddc863f	0.10767793
123	0xbcaafaa0	-0.02087146
124	0x3d812ba0	0.06307149
125	0xba8764f6	-0.0010329771
126	0x3c7913c7	0.015202469
127	0xbe121308	-0.14265072
128	0xbeecb7e1	-0.46234038
129	0x3e2e4bbb	0.17021076
130	0x3ebe4b86	0.37166995
131	0xbeed76e8	-0.4637978
132	0xbf34d63d	-0.706394
133	0x4059ebdc	3.4050207
134	0xbff6b9f2	-1.9275496
135	0x3c826d72	0.015921328
136	0x3c0ff530	0.008786485
137	0x3d17d55a	0.037068702
138	0xbeb21934	-0.34784853
139	0x3e818492	0.25296456
140	0xbf218059	-0.6308647
141	0x3e31325e	0.1730437
142	0x3f9230c6	1.1421134
143	0xbfc94d73	-1.5726761
144	0x3f93c8dd	1.1545674
145	0x3c81114b	0.015755316
146	0xbd967b65	-0.073477544
147	0x3e232a26	0.15934047
148	0xbebef006	-0.37292498
149	0x3f426df5	0.7594903
150	0x3e12f0f1	0.14349724
151	0x3e37a302	0.17933276
152	0xbe0dd415	-0.13850434
153	0x3e3957be	0.18099877
154	0x3c9d188d	0.019176746
155	0xbc21e3fe	-0.009881018
156	0x3d1034b7	0.035206523
157	0xbb9090f5	-0.0044118115
158	0x3d9f2cb6	0.077722
159	0x3bc96e12	0.0061471546
160	0x3d6aae21	0.05729497
161	0x3bca7229	0.0061781597
162	0xbc8c488f	-0.017124442
163	0x3dc8d463	0.098061346
164	0x3cddd7af	0.027080385
165	0x3c6db6d8	0.014508925
166	0x3e2f64de	0.17128322
167	0x3d1ed13e	0.038773768
168	0x3d2fd4c1	0.042927507
169	0x3d2bd978	0.04195544
170	0x3ea48c8f	0.32138488
171	0x3ebc26e8	0.36748433
172	0x3dc2534b	0.09488543
173	0xbdf70a6f	-0.12062537
174	0x39844d31	0.00025234514
175	0xc0168498	-2.3518429
176	0xc031ca6d	-2.77798
177	0xbeb35308	-0.35024285
178	0xbe2767db	-0.16348211
179	0xbefc2181	-0.4924431
180	0x3fedf5ce	1.8590639
181	0x40347f08	2.8202534
182	0x3ea0aee9	0.31383446
183	0x3e85bc65	0.26120296
184	0x3f2b3f2c	0.6689327
185	0xbe3d542e	-0.18489143
186	0xbe84f54d	-0.259684
187	0xbb5aa112	-0.0033360166
188	0xbd333f2c	-0.043761417
189	0xbdd49693	-0.10380282
190	0xbcc1ee22	-0.02367312
191	0xbc4acde4	-0.01237819
192	0x3c61a574	0.013772357
193	0xbd06e13f	-0.032929655
194	0xbc5b3915	-0.013380309
195	0x3d12b0a7	0.035813
196	0xbd559de4	-0.05215253
197	0x3d5652a5	0.05232491
198	0x3d02a86b	0.031898897
199	0x3d02a71b	0.031897645
200	0x3ebe1df1	0.37132218
201	0x3e5f67fa	0.21817008
202	0xbd8fe369	-0.07025797
203	0xbde62a39	-0.11238522
204	0xbe988b1e	-0.29793638
205	0x3ee021cd	0.43775788
206	0x3f16cf90	0.58910465
207	0x3e3b02a7	0.1826273
208	0xbeb7d60f	-0.359055
209	0xbe88af22	-0.26696116
210	0x3f926ad4	1.1438851
211	0x3ee030c3	0.43787202
212	0xbe387294	-0.18012458
213	0xbec5c1ca	-0.38624412
214	0xbe494a93	-0.19657354
215	0x40147391	2.3195536
216	0x3f8dc781	1.1076509
217	0x3ea7c0fa	0.32764417
218	0xbebfd8aa	-0.3746999
219	0xbf8f4798	-1.1193724
220	0x3fb9f1d4	1.4526925
221	0x3fbf4dd6	1.4945629
222	0x3db910cf	0.09036409
223	0xbf8716f1	-1.0553876
224	0xbfab1519	-1.3365813
225	0xbc6d6181	-0.014488579
226	0x3e59c61b	0.21266977
227	0x3e0dde98	0.13854444
228	0xbf328bb9	-0.6974445
229	0xbe99c79b	-0.300351
230	0xbe0880ec	-0.1333043
231	0xbe03a157	-0.12854515
232	0xbe0c7196	-0.13715205
233	0x3ea10d9e	0.31455702
234	0xbd992b5e	-0.07478975
235	0x3dccce5e	0.10000299
236	0x3d3ee515	0.04660519
237	0xbd134f34	-0.035964206
238	0xbda372c0	-0.07980871
239	0xbd976918	-0.07393092
240	0x3e8fe102	0.28101355
241	0xbfd55f8e	-1.6669786
242	0xbd611138	-0.05494806
243	0x3f0702b5	0.52738506
244	0x3f03383a	0.5125767
245	0xbeb8aa3f	-0.36067387
246	0xbece22e5	-0.40260997
247	0x3bb74d9e	0.0055939695
248	0x3ed58e0a	0.4170993
249	0xbd2e5586	-0.04256203
250	0xbef9068f	-0.48637816
251	0xbf0c4e86	-0.5480732
252	0xbf285240	-0.65750504
253	0xbf4b9744	-0.7952769
254	0xbf11fbca	-0.57024825
255	0xbeb02e06	-0.34410113

bias f4 [128]
0	0xbcd1bb36	-0.025601964
1	0xbe1d23ef	-0.15345739
2	0xbe10b5fa	-0.14131919
3	0xbc8ffa2c	-0.017575346
4	0x3e00928b	0.12555902
5	0xbdd525ef	-0.10407626
6	0x3d840496	0.06446187
7	0x3ddcb5a9	0.107768364
8	0xbde1577c	-0.110030144
9	0x3d9589da	0.07301684
10	0x3d0ab8a6	0.0338675
11	0xbe0f7fcd	-0.14013596
12	0x3b5598a1	0.0032592195
13	0xbe194980	-0.14969444
14	0x3e0dd6d7	0.13851486
15	0x3da12d72	0.07869996
16	0x3d844d97	0.064601116
17	0x3e009dba	0.12560168
18	0x3e009003	0.12554936
19	0x3e2c46a1	0.16823818
20	0x3d87f914	0.06639305
21	0xbdd63f5d	-0.10461304
22	0x3e275f99	0.16345061
23	0x3d4e9ff6	0.05044552
24	0xbd7142e1	-0.05890167
25	0xbd5e3f6b	-0.0542597
26	0x3e1f5c7d	0.15562625
27	0x3d2afac5	0.04174306
28	0x3def4f39	0.116850324
29	0x3c922a9a	0.01784258
30	0x3e197b6d	0.1498849
31	0xbdecb911	-0.11558736
32	0x3d154158	0.03643927
33	0x3d33e79f	0.043922063
34	0x3cee08ee	0.029056992
35	0x3e2ae6af	0.16689561
36	0x3d277ea5	0.040892262
37	0x3bb24483	0.005440296
38	0x3dfa425b	0.122196876
39	0x3c1c78f5	0.009550323
40	0x3b47eec0	0.0030507296
41	0xbe015a80	-0.1263218
42	0x3b1bf002	0.002379418
43	0xbd7bd6e4	-0.061484233
44	0x3dc54d69	0.096339054
45	0x3e19d0df	0.15021084
46	0xbe10d07f	-0.14142035
47	0xbdb04e0a	-0.08608635
48	0x3e1f88d8	0.15579545
49	0xbd6aa288	-0.057283908
50	0x3e15e036	0.14636311
51	0x3e25e61e	0.16201064
52	0xbd189d40	-0.03725934
53	0xbdf9d03a	-0.12197919
54	0x3dac4aa9	0.08412678
55	0x3d92b0c8	0.071626246
56	0x3e15d929	0.14633621
57	0x3cd78f9d	0.026313597
58	0x3ddea0f1	0.10870541
59	0xbe0e36e9	-0.13888134
60	0x3ce88ba2	0.028386895
61	0x3d2cbf38	0.042174548
62	0x3dd7304f	0.10507261
63	0xbd9ca729	-0.07649071
64	0xbcd2b0ee	-0.025719132
65	0xbdb40fc9	-0.08792073
66	0xbdc69ef2	-0.09698285
67	0x3d912b67	0.070883565
68	0x3cec5fec	0.028854333
69	0x3d93fb68	0.07225686
70	0xbbd1d65e	-0.0064037284
71	0x3b3ec467	0.0029108764
72	0xbae17c64	-0.0017203209
73	0x3dbb5731	0.0914749
74	0xbddeacf8	-0.10872835
75	0x3d195896	0.037437998
76	0x3db9d5af	0.0907396
77	0x3dbb6139	0.09149403
78	0xbd861efb	-0.06548878
79	0x3dfea948	0.124346316
80	0xbdc768dd	-0.09736798
81	0x3dac56d9	0.084150024
82	0x3e0efed3	0.13964395
83	0x3c3d8d2c	0.0115693025
84	0x3d5cd502	0.053914078
85	0xbe1600da	-0.14648762
86	0xbd6aceb4	-0.057326034
87	0xbd52cd44	-0.051465288
88	0xbe128675	-0.14309104
89	0xbcf90488	-0.030397668
90	0x3dff4962	0.124651685
91	0xbbfafd0c	-0.00765956
92	0x3e24fc7b	0.16111939
93	0xbe12f2ee	-0.14350483
94	0x3d86e9b1	0.06587542
95	0x3e1911c5	0.14948185
96	0x3e248779	0.16067304
97	0xbd689441	-0.05678201
98	0xbe0c1a25	-0.13681848
99	0xbd5d8601	-0.054082874
100	0x3df6670d	0.12031374
101	0x3cc56533	0.024096107
102	0x3e21be8e	0.15795347
103	0xbdcc90a9	-0.09988529
104	0xbdb27e72	-0.08715524
105	0x3db728e5	0.08943347
106	0x3d67dce1	0.05660713
107	0xbdd1bffd	-0.10241697
108	0x3e1a488d	0.15066738
109	0xbd526769	-0.05136815
110	0xbe05f171	-0.13080384
111	0x3d476b39	0.04868624
112	0xbd9c62a1	-0.076359995
113	0xbd938ec4	-0.07204965
114	0xbda99f45	-0.082823314
115	0x3d3ed52e	0.046590023
116	0x3da4842b	0.080330215
117	0x3de7c867	0.113175206
118	0xbda74139	-0.08166737
119	0xbce2f356	-0.027703922
120	0x3e19818a	0.14990821
121	0xbda7bf81	-0.08190823
122	0xbd5641b5	-0.052308757
123	0xbcf74501	-0.03018427
124	0xbe0fd2a4	-0.14045197
125	0xbdedf440	-0.116188526
126	0x3e1ce60d	0.15322132
127	0x3d0a4a29	0.03376213

weight f4 [128]
0	0x3f8bfe04	1.0936894
1	0x3f8db8cd	1.1072022
2	0x3fb5a852	1.4191992
3	0x3f6e299e	0.9303225
4	0x3fc5bf5e	1.5449026
5	0x3fa16c93	1.2611259
6	0x3fa45120	1.2837257
7	0x3f89e9ab	1.0774435
8	0x3fa7f37d	1.3121182
9	0x3fa4614b	1.2842191
10	0x3f6bba98	0.92081594
11	0x3fb023a5	1.3760878
12	0x3fe5f02f	1.7963923
13	0x3fae3b6a	1.3611882
14	0x3fa9fb69	1.3279849
15	0x3f93bf49	1.1542751
16	0x3f90586c	1.1276984
17	0x3f8994bd	1.0748516
18	0x3f81df5f	1.0146292
19	0x3fb9f323	1.4527324
20	0x3f6a7603	0.9158632
21	0x3fb2391a	1.3923676
22	0x3fa71c3c	1.3055491
23	0x3fd62227	1.6729172
24	0x3fabb6e1	1.3415185
25	0x3fa5623c	1.2920604
26	0x3f88c635	1.0685488
27	0x3f593f3e	0.84862125
28	0x3f9e68d3	1.237574
29	0x3fa0355a	1.2516282
30	0x3f8cd6a7	1.1003007
31	0x3f933ba1	1.1502572
32	0x3fdc4d2a	1.7211049
33	0x3f87fcbe	1.0624006
34	0x3fc08576	1.5040729
35	0x40036120	2.052803
36	0x3fa2f9a0	1.273243
37	0x3f9aefa7	1.2104386
38	0x3f754555	0.9580892
39	0x4001b25e	2.0265117
40	0x3fccd0d5	1.600123
41	0x3f834973	1.025679
42	0x3f6869f9	0.907867
43	0x3fd0f717	1.6325406
44	0x3f94dd44	1.1630025
45	0x3f9e1374	1.2349687
46	0x3fb3cce1	1.4046899
47	0x3f8af8f1	1.0857221
48	0x3f7c3cf9	0.98530537
49	0x3fac3e5c	1.345653
50	0x3fc18ac6	1.5120475
51	0x3f7370bf	0.9509391
52	0x3f96dc4b	1.1785978
53	0x3f9fa92c	1.2473502
54	0x3f92da78	1.1472921
55	0x3f83fa79	1.0310813
56	0x3fad52d5	1.3540903
57	0x3fa117b1	1.2585355
58	0x3ff022fc	1.8760676
59	0x3f710a71	0.9415656
60	0x3fc93a0e	1.5720842
61	0x3f9374ca	1.1520016
62	0x3f93f64e	1.1559541
63	0x3f9b88e2	1.2151148
64	0x3f741161	0.9533902
65	0x3f8a1c2d	1.0789849
66	0x3fabe973	1.3430618
67	0x3f902997	1.1262692
68	0x3f95e9f4	1.1712022
69	0x3fad8d3a	1.3558724
70	0x3f6e51e0	0.9309368
71	0x3fabccf4	1.3421922
72	0x3fd819c1	1.688286
73	0x3f8d6519	1.1046478
74	0x3fc455d3	1.5338691
75	0x3fa3b503	1.2789615
76	0x3f81dedd	1.0146137
77	0x3f9be985	1.218064
78	0x3fd159d0	1.6355534
79	0x3f82bec8	1.0214472
80	0x3f97ecc7	1.1869134
81	0x3f8fffff	1.1249999
82	0x3fc7b48f	1.5601977
83	0x3f9703d2	1.1798041
84	0x3fa88b7a	1.3167565
85	0x3f7e0c46	0.9923748
86	0x3f850bb7	1.03942
87	0x3fb10c2c	1.383184
88	0x3f9618c3	1.1726307
89	0x3f87fb61	1.062359
90	0x3f9d4411	1.2286397
91	0x3fa6ad85	1.3021704
92	0x3f8f90e7	1.1216096
93	0x3f77c4f5	0.9678491
94	0x3f9be0f3	1.2178024
95	0x3facffe8	1.3515596
96	0x3f959291	1.1685354
97	0x3fb74a57	1.4319562
98	0x3f805fee	1.0029275
99	0x3fa85773	1.3151687
100	0x3f7d5edb	0.9897286
101	0x3f887981	1.066208
102	0x3f8893bb	1.0670084
103	0x3fae0481	1.3595124
104	0x3fd383d1	1.6524602
105	0x3f8f19a8	1.1179705
106	0x3f9006be	1.1252058
107	0x3fab2664	1.3371091
108	0x3f701dfc	0.9379575
109	0x3fc50643	1.5392536
110	0x3fb41ab7	1.4070653
111	0x3f7ff330	0.9998045
112	0x3fa17b1b	1.2615694
113	0x3f954f4f	1.1664828
114	0x3f986434	1.190558
115	0x3f880dd0	1.0629215
116	0x3f8bae8b	1.0912641
117	0x3f819af2	1.012541
118	0x3f760376	0.9609903
119	0x3f94c871	1.162367
120	0x3fa87ded	1.316343
121	0x3fad70d5	1.3550059
122	0x3ff7c132	1.9355834
123	0x3f7d6b08	0.9899144
124	0x3fac6be8	1.347043
125	0x3f7ec6e7	0.9952225
126	0x3f95e3a5	1.1710097
127	0x3f5c3104	0.8601229

bias f4 [128]
0	0xbce2827c	-0.02765011
1	0xbeee004e	-0.46484607
2	0xbcc63676	-0.02419589
3	0xbe0a6a0b	-0.13517015
4	0xbe4cd5bf	-0.20003413
5	0xbd9ccede	-0.07656644
6	0xbf898671	-1.0744153
7	0xbdf5a9a3	-0.11995246
8	0xbe2f3394	-0.17109519
9	0xbf864daa	-1.0492451
10	0xbe8eca9b	-0.2788895
11	0xbd9fd18a	-0.07803638
12	0xbdc3490a	-0.095354155
13	0x3bc9bfe8	0.00615691
14	0xbec552c5	-0.3853971
15	0xbc2abc9f	-0.010420947
16	0xbf16943b	-0.5881993
17	0xbf477b80	-0.7792282
18	0xbd3dacb2	-0.046307273
19	0xbe857100	-0.26062775
20	0xbc3d23ac	-0.011544149
21	0xbf5a5641	-0.85287863
22	0xbf0938c5	-0.5360225
23	0xbd7211a2	-0.059098847
24	0x3c5bae29	0.013408222
25	0xbcea9927	-0.028637482
26	0xbd1b8fdb	-0.03797899
27	0xbe2c366c	-0.16817635
28	0xbf9979f2	-1.199034
29	0xbef65557	-0.48111984
30	0xbd960a9a	-0.07326241
31	0xbe3d5002	-0.18487552
32	0xbe8554e5	-0.26041332
33	0xbe18c9ce	-0.14920732
34	0xbe4b712c	-0.1986739
35	0xbe5bf74f	-0.2148106
36	0xbdcd37e0	-0.10020423
37	0xbdda3684	-0.10654929
38	0xbde7f3b1	-0.11325777
39	0xbe36703d	-0.17816253
40	0xbda8b14a	-0.0823694
41	0xbea077fd	-0.31341544
42	0xbdbdbccf	-0.09264528
43	0xbd99631e	-0.07489608
44	0xbee04213	-0.4380041
45	0xbea4f1bd	-0.32215682
46	0xbfc34c96	-1.5257747
47	0xbf499036	-0.78735673
48	0xbdd5d435	-0.10440866
49	0xbf94c238	-1.1621771
50	0xbe3570ff	-0.17718886
51	0xbf0461fe	-0.51712024
52	0xbdde9874	-0.10868922
53	0xbfb48e39	-1.4105903
54	0xbf91382c	-1.1345267
55	0xbe22f475	-0.15913565
56	0xbf60141e	-0.87530696
57	0xbf41df73	-0.7573158
58	0xbe597c72	-0.21238878
59	0x3bd3ab02	0.0064595947
60	0xbd63d826	-0.055626057
61	0xbdab33ee	-0.08359514
62	0xbfaeeff4	-1.3666978
63	0xbd3b78b8	-0.045769423
64	0xbe605642	-0.21907905
65	0x3d592e1b	0.053022485
66	0xbf39f81f	-0.7264423
67	0xbe861e67	-0.2619507
68	0x3c2a9ffe	0.010414122
69	0xbe954687	-0.2915537
70	0xbe2d24a4	-0.16908509
71	0xbf362962	-0.71156895
72	0xbd394a42	-0.045236833
73	0xbe9d2405	-0.30691543
74	0xbd705ab7	-0.058680262
75	0xbcd400f9	-0.02587937
76	0xbedc8957	-0.43073532
77	0xbf4537cf	-0.7703828
78	0xbd7e2f2c	-0.062056705
79	0xbe0a042b	-0.13478152
80	0xbff68339	-1.9258796
81	0xbf0b4042	-0.54394925
82	0xbd6a0466	-0.0571331
83	0xbe8c128a	-0.27357894
84	0xbff55603	-1.9166874
85	0xbee23943	-0.44184312
86	0xbdbb3c0b	-0.09142312
87	0xbf77e888	-0.9683919
88	0xbd4c456a	-0.049870886
89	0xbd22f8a2	-0.039787896
90	0xbe866547	-0.26249143
91	0xbcce2cd3	-0.025167858
92	0xbd436f71	-0.0477137
93	0xbd104e1e	-0.03523075
94	0xbde4b413	-0.11167159
95	0xbdba4a4e	-0.09096204
96	0xbe938030	-0.28808737
97	0xbd500d34	-0.05079384
98	0xbdb542b0	-0.0885061
99	0xbd85f4cd	-0.06540833
100	0xbd24281b	-0.04007731
101	0xbc0f117d	-0.008732197
102	0xbe176857	-0.14785896
103	0xbe10d576	-0.14143929
104	0xbdde1bca	-0.10845144
105	0xbe0190a7	-0.12652837
106	0xbcdf364a	-0.027247567
107	0xbd946859	-0.07246465
108	0xbdc2a3e1	-0.09503914
109	0xbf31f831	-0.69519335
110	0xbd45a8c2	-0.048256643
111	0xbdf93dd3	-0.12169995
112	0xbf0bf553	-0.5467121
113	0xbca10080	-0.019653559
114	0xbf7f2f65	-0.99681693
115	0xbd9d78a8	-0.07689029
116	0xbd6251e9	-0.055253897
117	0xbecc1c5c	-0.39865386
118	0xbd672f6c	-0.05644171
119	0xbe86a2f7	-0.26296207
120	0xbda0c3c9	-0.07849843
121	0xbc09f34a	-0.008419821
122	0xbe3829d5	-0.17984708
123	0xbddeb695	-0.108746685
124	0xbfdac3c3	-1.7090992
125	0xb9b68b5e	-0.00034817582
126	0xbf5722c4	-0.84037423
127	0xbc9d1931	-0.019177051

running_mean f4 [128]
0	0x40309f80	2.759735
1	0xbfba0fdd	-1.4536091
2	0x40c7502c	6.2285366
3	0xbfc5ab49	-1.5442897
4	0xbf931549	-1.1490871
5	0xc042f84d	-3.046405
6	0xc04a875d	-3.164512
7	0xc128e671	-10.55626
8	0xbe9d4fa4	-0.30724823
9	0xc05a71bb	-3.4131916
10	0x3e190062	0.14941552
11	0x3e101959	0.1407217
12	0x3ff796a5	1.9342848
13	0xc0a3d09f	-5.1192164
14	0x4041f4bb	3.0305622
15	0xc09f3d6c	-4.976248
16	0xc090dd2a	-4.5269976
17	0x40f342a7	7.6018863
18	0xc14f8d18	-12.971947
19	0x3fc52250	1.5401096
20	0x4012d2e0	2.2941208
21	0x40bcfb21	5.9056554
22	0xc0246c93	-2.5691268
23	0x3eabc67c	0.3354987
24	0x40c68363	6.2035384
25	0x41813f28	16.155838
26	0x408b8e11	4.361092
27	0xc0212396	-2.517797
28	0x4090f0d6	4.529399
29	0xc04708e0	-3.1099167
30	0xc0f303b9	-7.5942044
31	0x3fe561bb	1.792045
32	0x3fba6f24	1.4565167
33	0x409cc6db	4.8992743
34	0xc0c16eac	-6.0447598
35	0xc07c5add	-3.9430459
36	0x3fff2581	1.993332
37	0xbf84b0bf	-1.0366439
38	0xc1853538	-16.650986
39	0x403d0965	2.9536984
40	0x408f24a8	4.4732246
41	0xbeadb7a5	-0.33929172
42	0x3fc7489b	1.5569032
43	0xc06903f3	-3.640866
44	0xbf8f5251	-1.1196996
45	0x3f4ae164	0.7925017
46	0x40602a25	3.5025723
47	0x40a20b7d	5.0639024
48	0x408d4939	4.4151883
49	0x404a8e61	3.16494
50	0xbf133152	-0.5749713
51	0x40465a74	3.0992708
52	0xc01ca596	-2.4476066
53	0xc04695d8	-3.1028957
54	0xbfee9b1a	-1.8641083
55	0x40072e4b	2.1122005
56	0x3ebee19f	0.3728151
57	0x406d25d0	3.705433
58	0xc084b069	-4.1465344
59	0x40e655f8	7.197994
60	0xc020f219	-2.5147765
61	0x402b539a	2.6769776
62	0x40898c12	4.2983484
63	0xc10c55b1	-8.770921
64	0xc0253797	-2.581518
65	0xc086b98b	-4.2101493
66	0x40883be2	4.25731
67	0xc01deec9	-2.4676993
68	0xc04a1a42	-3.1578526
69	0xc013b693	-2.3080184
70	0xc0132542	-2.299149
71	0xbff8b908	-1.9431467
72	0xbf280361	-0.65630156
73	0xc088d4ce	-4.275977
74	0x403fceee	2.997005
75	0x40d5f192	6.6857386
76	0xbe94c8ac	-0.2905935
77	0x3feee66d	1.866407
78	0xbf3385ca	-0.7012602
79	0x3f9248fb	1.1428522
80	0xc1331ccf	-11.194533
81	0x3f2f910b	0.68580693
82	0x3ffb567f	1.9635772
83	0xbf8af0f8	-1.0854788
84	0xbfa880fb	-1.3164362
85	0x403fbb00	2.9957886
86	0x400b2308	2.1740131
87	0x40210ef9	2.5165389
88	0x4180caa3	16.098944
89	0xc08616d3	-4.190286
90	0xbfb429d5	-1.4075266
91	0xbeda40c7	-0.42627546
92	0xbe703762	-0.23458627
93	0xbfae2a5a	-1.3606675
94	0x3ff2863e	1.8947217
95	0xc0afc68b	-5.492986
96	0x3fdbe493	1.717913
97	0x3f5618e6	0.8363174
98	0xc1756630	-15.337448
99	0xc049aa80	-3.1510315
100	0x40ca96c5	6.3309045
101	0xc106faf4	-8.436268
102	0x3f09fcda	0.53901446
103	0x4018d050	2.3877144
104	0xc0855b8e	-4.167426
105	0xbf4e8f33	-0.80687255
106	0x40f3efdb	7.623029
107	0x40a16872	5.0439997
108	0x4021b009	2.5263693
109	0x40006732	2.0062985
110	0x4087e070	4.246147
111	0x41305339	11.020318
112	0xc004be7d	-2.0741265
113	0xc02c3426	-2.690683
114	0xc0912da6	-4.5368223
115	0x414160b4	12.086109
116	0xc0945176	-4.634944
117	0x4039a9f3	2.9009979
118	0xbe921d67	-0.28538057
119	0x40882bd5	4.2553506
120	0xc0ada4ff	-5.426391
121	0x3e785b1d	0.24253507
122	0x40afb6a0	5.491043
123	0xbed78dbe	-0.42100328
124	0x406d07a2	3.7035909
125	0xc0614b66	-3.520227
126	0xc13d30bd	-11.824399
127	0xbf18d24d	-0.59695894

running_var f4 [128]
0	0x4634a5db	11561.464
1	0x454cb910	3275.5664
2	0x466d172b	15173.792
3	0x460dec66	9083.1
4	0x45682a19	3714.631
5	0x45ffb0bc	8182.092
6	0x45245238	2629.1387
7	0x45977e9d	4847.8267
8	0x451e96af	2537.4177
9	0x46086f49	8731.821
10	0x45fbca33	8057.275
11	0x45c1755f	6190.6714
12	0x463136ac	11341.668
13	0x46c7f5a4	25594.82
14	0x450fb315	2299.1926
15	0x460b9a27	8934.538
16	0x45cbfc27	6527.519
17	0x45580c0e	3456.7534
18	0x45b72503	5860.6265
19	0x45078a40	2168.6406
20	0x4605ab47	8554.819
21	0x45300f43	2816.9539
22	0x45446659	3142.3967
23	0x45fc1c95	8067.5728
24	0x4616b859	9646.087
25	0x45200073	2560.028
26	0x45c4e77c	6300.9355
27	0x453a385f	2979.5232
28	0x45c09c77	6163.558
29	0x451ae5c9	2478.3616
30	0x451bcb7e	2492.7183
31	0x4521677c	2582.4678
32	0x454b0a5c	3248.6475
33	0x45f9c078	7992.0586
34	0x45cdc010	6584.008
35	0x455555eb	3413.3699
36	0x45f079e4	7695.2363
37	0x450fc009	2300.0022
38	0x4559fb97	3487.7244
39	0x45839ecf	4211.851
40	0x460255b3	8341.425
41	0x458453a7	4234.4565
42	0x462cdeb5	11063.677
43	0x46195b24	9814.785
44	0x4525929f	2649.1638
45	0x45061ec7	2145.9236
46	0x45b38127	5744.144
47	0x456ed8fb	3821.5613
48	0x45da7432	6990.5244
49	0x4526c84a	2668.518
50	0x45d5e713	6844.8843
51	0x456c56bf	3781.4216
52	0x45b2ffd7	5727.98
53	0x454df3d5	3295.2395
54	0x4571c7db	3868.491
55	0x44f95f4c	1994.978
56	0x450af5d6	2223.3647
57	0x45f90123	7968.142
58	0x454de551	3294.3323
59	0x45b3e258	5756.293
60	0x466ae2dc	15032.715
61	0x4556beec	3435.9326
62	0x4580c04e	4120.038
63	0x466b6b2a	15066.791
64	0x45050925	2128.5715
65	0x46102947	9226.319
66	0x455c4252	3524.145
67	0x45817e46	4143.784
68	0x45274446	2676.267
69	0x45358131	2904.0745
70	0x450bfb4e	2239.7065
71	0x4533d931	2877.5745
72	0x468ad66d	17771.213
73	0x457b59a3	4021.6023
74	0x4596c589	4824.692
75	0x462b263c	10953.559
76	0x455058f1	3333.5588
77	0x451beaf4	2494.6846
78	0x45f59c63	7859.5483
79	0x45bbd9a4	6011.205
80	0x45a43410	5254.508
81	0x45346a6d	2886.6516
82	0x45ee4265	7624.2993
83	0x46021540	8325.3125
84	0x45ac0038	5504.0273
85	0x4566d5e0	3693.3672
86	0x4583ccf7	4217.6206
87	0x454ca88d	3274.5344
88	0x45c74fb6	6377.964
89	0x46030ecd	8387.7
90	0x4582ee67	4189.8003
91	0x463ac802	11954.002
92	0x4562a4c5	3626.298
93	0x465ba67e	14057.623
94	0x462d90c6	11108.193
95	0x462bc48a	10993.135
96	0x44fab3d5	2005.6198
97	0x45d3173b	6754.904
98	0x45893e02	4391.751
99	0x465a2cd8	13963.211
100	0x45c2f1ac	6238.209
101	0x45b9549f	5930.5776
102	0x4525b703	2651.4382
103	0x45bec383	6104.439
104	0x45b53f3c	5799.9043
105	0x45952204	4772.252
106	0x46860510	17154.531
107	0x460c69d0	8986.453
108	0x45768760	3944.461
109	0x451350d9	2357.053
110	0x46cb3fe9	26015.955
111	0x45e1aa1c	7221.2637
112	0x450b93b6	2233.232
113	0x46914500	18594.5
114	0x454385df	3128.367
115	0x45b5002f	5792.023
116	0x46204061	10256.095
117	0x458164db	4140.607
118	0x46033889	8398.134
119	0x456d356d	3795.339
120	0x463eb793	12205.894
121	0x45ff678c	8172.9434
122	0x4581896a	4145.177
123	0x45cd60cf	6572.101
124	0x45b41e2a	5763.7705
125	0x45534e4a	3380.893
126	0x45948536	4752.6514
127	0x462bfaeb	11006.7295

weight f4 [64, 128, 3]
0	0xbda0f59a	-0.07859345
1	0xbf475332	-0.7786132
2	0xbf0d406a	-0.55176413
3	0x3d7835ce	0.060598187
4	0xbe460250	-0.1933682
5	0x3e80996a	0.25117046
6	0xbc8253b8	-0.01590906
7	0xbe17792e	-0.1479232
8	0xc00c529d	-2.1925423
9	0xbebbe65e	-0.36699194
10	0x3f21e4b8	0.6323962
11	0xbe31a2d8	-0.17347276
12	0xc0567352	-3.3507886
13	0xc006fb89	-2.1091025
14	0xc0181063	-2.3760002
15	0xbeedcd25	-0.46445575
16	0x3d1be901	0.038064007
17	0xbef98caa	-0.4874013
18	0xbe82d5dc	-0.25553787
19	0xbcdbf152	-0.026848469
20	0xbedf30fd	-0.43592063
21	0x3f62e057	0.88623565
22	0x3e9de1c6	0.30836314
23	0xbe49a9da	-0.196937
24	0x3e060d64	0.13091046
25	0xbd14b616	-0.036306463
26	0x3f232219	0.63723904
27	0x3f7493b5	0.95537883
28	0x3f5fcf11	0.87425333
29	0x3f87d9fb	1.0613397
30	0xbf4cfede	-0.80076396
31	0xbee553a7	-0.44790384
32	0x3ea483bd	0.32131758
33	0x3ea8057d	0.32816687
34	0x3e232c8c	0.15934962
35	0x3dd0845f	0.10181498
36	0xbdfaeaac	-0.12251791
37	0x3e6b2913	0.22964887
38	0x3e8ab37a	0.27090055
39	0xbf5b3796	-0.8563169
40	0xbfe8f33a	-1.8199227
41	0xbff07f67	-1.878888
42	0x3f1bd7c7	0.60876125
43	0x3e58b846	0.21164045
44	0x3f865f04	1.0497746
45	0x3f05415b	0.5205285
46	0xbf60d148	-0.8781934
47	0xbe87d029	-0.26526
48	0xbf1a7e2e	-0.60348785
49	0xbde89ecc	-0.11358413
50	0xbeba65f4	-0.3640591
51	0xbeff54cb	-0.4986938
52	0xbe2294f5	-0.15877135
53	0xbf33cfa0	-0.70238686
54	0xbf580000	-0.84375
55	0x3e934d46	0.28769892
56	0x3e931394	0.28725874
57	0x3e2096ec	0.15682572
58	0xbd958f4d	-0.07302723
59	0x3acadaa8	0.0015476542
60	0xbd831a3a	-0.06401487
61	0x3ea3eead	0.32018033
62	0x3e714fdb	0.23565619
63	0x3e84f32d	0.25966778
64	0xbe4ae92f	-0.19815515
65	0x3eb080aa	0.34473163
66	0x3ebd9666	0.37028807
67	0x3f558f07	0.8342137
68	0x3e970a6f	0.29500148
69	0x3dd91cb5	0.106011786
70	0x3e1a3bdd	0.15061899
71	0xbe1a4ce1	-0.1506839
72	0xbd5ee142	-0.05441404
73	0xbe598290	-0.21241212
74	0xbff55928	-1.9167833
75	0x3e431465	0.19050749
76	0x3e643713	0.22286634
77	0x3f30da58	0.69083166
78	0x3ec5a3b1	0.3860145
79	0xbe8bad5a	-0.27280694
80	0x3e9ad9b7	0.30244228
81	0x3f50f519	0.8162399
82	0x3ef3aaab	0.47591147
83	0xbe8cb2bf	-0.27480122
84	0x3ff310ab	1.8989462
85	0x3fd30327	1.6485337
86	0x3fd61fcb	1.6728452
87	0x3e9726ec	0.29521883
88	0x3db9758f	0.09055626
89	0x3d2cf772	0.04222817
90	0x3d5005e8	0.050786883
91	0xbec4a9b6	-0.3841073
92	0x3a95ee87	0.0011438885
93	0x3f35eb25	0.7106193
94	0x3f0ba7b6	0.5455278
95	0x3f081fe0	0.5317364
96	0xc090da6a	-4.526662
97	0xc061dafa	-3.5289903
98	0xc0355f69	-2.8339484
99	0x3e90e26e	0.28297752
100	0x3f29f7bc	0.6639364
101	0xbeab32e6	-0.3343727
102	0xbfa3246c	-1.274549
103	0xbe42c31c	-0.19019741
104	0xbf18642c	-0.5952785
105	0x3da98587	0.082774214
106	0x3c2b6ddf	0.010463207
107	0xbe37463a	-0.17897883
108	0xbfd947e2	-1.6975062
109	0xbfccbc4e	-1.5994966
110	0xbf7c5b19	-0.98576504
111	0x3d1b3ec5	0.03790166
112	0x3dc060b4	0.09393445
113	0x3d0d272d	0.03446119
114	0x3d0b2f70	0.033980787
115	0x3c74a617	0.014932177
116	0x3d7ed3fb	0.06221388
117	0xbe492e11	-0.19646479
118	0x3cda5145	0.02665008
119	0xbe6cda70	-0.23130202
120	0x3e97b450	0.29629755
121	0x3f35a3a2	0.7095281
122	0x3ebdcae7	0.37068865
123	0xbf862435	-1.04798
124	0x3ef5b34b	0.47988352
125	0xbe79b048	-0.24383652
126	0xbef270ff	-0.47351834
127	0xbea9763c	-0.33098018
128	0xbeeb472c	-0.45952737
129	0x3d80efa7	0.0629571
130	0x3e533361	0.20625068
131	0x3cf340ba	0.02969395
132	0x3e8d6697	0.27617332
133	0x3e3cb866	0.18429717
134	0xbdfcf5f1	-0.12351597
135	0xbe2f4134	-0.17114717
136	0xbe95b854	-0.29242194
137	0xbf2ec17d	-0.6826399
138	0xbf72271c	-0.94590926
139	0xbf06e126	-0.526873
140	0xbf0cb5a0	-0.5496464
141	0x3f0b482e	0.5440701
142	0xbeb79b0a	-0.35860473
143	0xbee1d8c0	-0.4411068
144	0xbf4714e2	-0.7776624
145	0xbe57962d	-0.21053381
146	0xbd368528	-0.04456058
147	0x3eb1e891	0.34747747
148	0x3f399eba	0.7250782
149	0x3f35eaae	0.7106122
150	0xc0872c0c	-4.224127
151	0xc03b51df	-2.926872
152	0xc0278d92	-2.6180158
153	0x3f0fbe8a	0.56150115
154	0xbda39256	-0.07986896
155	0x3e1f6f4b	0.15569799
156	0xbfa706c0	-1.3048935
157	0xbfa9573a	-1.3229744
158	0xbfe332a1	-1.7749826
159	0xbdefd7d3	-0.11711087
160	0xbfc07743	-1.5036396
161	0xbf996a9f	-1.1985663
162	0xbf150cde	-0.5822276
163	0xbef7e53f	-0.48417088
164	0xbec22d1c	-0.3792504
165	0x3f4c4af7	0.7980189
166	0x3eea52b9	0.45766237
167	0x3e65162a	0.22371736
168	0x3f8c2263	1.0947994
169	0x3e68d6b8	0.22738159
170	0x3f2d6180	0.677269
171	0xbe9ba827	-0.30401728
172	0xbd9720f4	-0.07379332
173	0xbe499c6d	-0.19688578
174	0x3e82e10a	0.25562316
175	0x3e11fb1c	0.14255947
176	0x3dc04dee	0.09389864
177	0xbe7da579	-0.24770154
178	0x3dee580b	0.116378866
179	0xbee10a77	-0.43953297
180	0xc05752ad	-3.3644211
181	0xbfbdd582	-1.4830782
182	0xbedb173b	-0.4279116
183	0x3efeef2d	0.49791852
184	0xbee966aa	-0.4558614
185	0xbebd20ca	-0.3693908
186	0xbe7d817f	-0.2475643
187	0xbf3c7b49	-0.7362562
188	0xbf29a42e	-0.66266143
189	0x3e22c5fd	0.15895839
190	0x3f36d545	0.71419173
191	0x3eadcf86	0.3394739
192	0x3eb964eb	0.36209807
193	0x3dc3d561	0.09562183
194	0x3ed9f80d	0.4257206
195	0xbf758a6d	-0.95914346
196	0xbcbe1324	-0.023202486
197	0x3e9ceaaf	0.306478
198	0xbe9381f1	-0.28810075
199	0x3c9bbc7d	0.019010777
200	0xbe7ab455	-0.24482854
201	0xbca345d6	-0.019930761
202	0xbddd7c22	-0.10814692
203	0x3ed06ed7	0.40709564
204	0xbe516457	-0.20448433
205	0xbe6c7e6a	-0.23095098
206	0xbf056779	-0.5211101
207	0x3e92533f	0.28579137
208	0x3d527461	0.05138052
209	0xbdf690c2	-0.12039329
210	0xbe8a16ec	-0.26970613
211	0xbed40ab8	-0.41414428
212	0xbe0d48b9	-0.13797273
213	0x3ec3c662	0.38237292
214	0x3f032f78	0.51244307
215	0xbd0fc380	-0.035098553
216	0xbeaf41a5	-0.3422977
217	0x3e3f5aca	0.18686977
218	0xbe325345	-0.17414577
219	0xbdd9391b	-0.10606595
220	0xbfad51d7	-1.35406
221	0xbf19f643	-0.6014139
222	0x3dbd0f2e	0.09231411
223	0x3f0d36c5	0.55161697
224	0x3edf03c0	0.4355755
225	0xbf668678	-0.90048933
226	0xbe85e552	-0.2615152
227	0xbe361867	-0.17782746
228	0xbf0b5ecc	-0.54441524
229	0xbf594759	-0.8487449
230	0xbe557622	-0.20845845
231	0x3e8d1402	0.27554327
232	0x3ec4cfc6	0.3843977
233	0xbe524e0c	-0.20537585
234	0xbe6bc3c4	-0.23023897
235	0xbec0cdda	-0.37657052
236	0xbe60f17e	-0.21967122
237	0x3ebaac11	0.364594
238	0xbcaa1fd8	-0.020767137
239	0x3f0ccaee	0.54997146
240	0xbe2cbd9f	-0.1686921
241	0xbe767f56	-0.24072012
242	0x3ee2150e	0.44156688
243	0xbe9e8d4e	-0.30967182
244	0xbf663b79	-0.899345
245	0xbeb8b849	-0.36078098
246	0xbed5149b	-0.41617283
247	0xbec5e125	-0.38648334
248	0xbeaa5587	-0.33268377
249	0x3f80a249	1.0049525
250	0xbdd5ba75	-0.104359545
251	0x3f39be75	0.7255624
252	0xbf8fb6ee	-1.1227701
253	0x3fa749fd	1.3069454
254	0x3d0a9248	0.03383091
255	0x3ed5bf63	0.4174758

bias f4 [64]
0	0xbbe5b5da	-0.007010204
1	0xbcca999a	-0.024731446
2	0x3d30c9c1	0.043161158
3	0xbbaebb52	-0.005332389
4	0xbd763c68	-0.0601162
5	0xbcfddad3	-0.030988133
6	0x3c0359af	0.008016988
7	0xbd4a8e0a	-0.049451865
8	0x3d1dbaec	0.03850834
9	0xbcb26600	-0.021777153
10	0xbd423c6b	-0.0474209
11	0x3c676101	0.014122249
12	0x3c2ff047	0.010738439
13	0xbc73d3a2	-0.014882
14	0xba1948b0	-0.0005847318
15	0xbc334cf5	-0.010943641
16	0xbd3a2c78	-0.045452565
17	0xbbcf4f41	-0.0063265865
18	0xbadff387	-0.0017086127
19	0xbc6d78cc	-0.014494132
20	0x3d7a60c4	0.06112744
21	0x3d1d1e64	0.03835906
22	0x3d8a67b4	0.06758061
23	0x3d104329	0.0352203
24	0x3d2955a8	0.041341454
25	0xbb5836cb	-0.0032991644
26	0xbd4ee31e	-0.050509565
27	0x3d396b9e	0.045268647
28	0xbbdad251	-0.0066779037
29	0xbd0e7b85	-0.034785766
30	0x3932219f	0.00016987928
31	0x3a9f8882	0.001217142
32	0x3d655feb	0.055999678
33	0x3d12b5f8	0.03581807
34	0xba9ae276	-0.0011816758
35	0xbb9659f4	-0.00458836
36	0x3cdb78cf	0.026791004
37	0x3cd699c7	0.026196374
38	0xbaddd45a	-0.0016924248
39	0x3cd648f2	0.02615783
40	0x3cb2751f	0.021784363
41	0x3d793cb0	0.06084889
42	0xbc14d1af	-0.009083196
43	0xbcc6e9b4	-0.02428136
44	0xbd119e8a	-0.035551585
45	0x3cf22b19	0.029561566
46	0x3bd2be3e	0.00643137
47	0xbab7ba17	-0.0014017251
48	0x3dadc857	0.084854774
49	0xbc9807ab	-0.018558344
50	0x3ca40c82	0.020025495
51	0xbca875f5	-0.020564059
52	0x3d8638f3	0.06553831
53	0xbd1b5506	-0.03792288
54	0x3d0ad314	0.033892706
55	0x3c8a47ee	0.016880002
56	0xbca32048	-0.019912854
57	0x3ce6cd9c	0.028174214
58	0x3cf57526	0.029963087
59	0x3d9b5323	0.075842164
60	0x3d857ef4	0.06518355
61	0x3c2fbd55	0.010726293
62	0xbca4a04a	-0.020095963
63	0x3bdb398b	0.0066902093

weight f4 [64]
0	0x3fc3fe09	1.53119
1	0x3f416a5e	0.7555293
2	0x3fcadb46	1.5848167
3	0x3fbda0c8	1.4814692
4	0x3fb1df70	1.3896313
5	0x3f9d2d0b	1.2279371
6	0x3ff2a6d7	1.8957165
7	0x3fc5699d	1.5422856
8	0x3f4a9da5	0.79146796
9	0x3f946969	1.1594669
10	0x3f81ce64	1.014111
11	0x3fceb919	1.6150237
12	0x3feea86b	1.8645147
13	0x3fb394c1	1.4029771
14	0x3f8a0f2b	1.0785879
15	0x3f6245f7	0.8838801
16	0x3f21c37e	0.6318892
17	0x3f953930	1.1658077
18	0x3f872af9	1.0559989
19	0x3eecf41f	0.4628
20	0x3ff7b922	1.9353373
21	0x3f8f6880	1.1203766
22	0x400a9815	2.1655324
23	0x3f82ed8c	1.0228744
24	0x40039817	2.0561578
25	0x3fbbd9f7	1.4675893
26	0x3f250ebc	0.6447561
27	0x3f9c49b1	1.2209989
28	0x3ef0ab44	0.47005665
29	0x3fbdeef2	1.4838545
30	0x3fa7c0a1	1.3105661
31	0x3f3427db	0.70373315
32	0x4002d5d7	2.0443017
33	0x3f940c5c	1.1566272
34	0x3f836d3a	1.0267708
35	0x3fdc0780	1.7189789
36	0x3fbe9d49	1.489175
37	0x3f7b838e	0.9824761
38	0x3fa4fc48	1.288949
39	0x3ff66025	1.9248091
40	0x40030fb9	2.0478346
41	0x3ffdebe1	1.983761
42	0x3faf5d56	1.3700359
43	0x3f7023e7	0.9380478
44	0x3f64ffa1	0.8945256
45	0x3fa2f7fe	1.2731931
46	0x3f4fc5a4	0.8116095
47	0x3f8453e9	1.0338107
48	0x3f9ffe55	1.2499491
49	0x3ef79fd9	0.48364142
50	0x4004fd4d	2.0779603
51	0x4006f748	2.1088428
52	0x3fe3e7c0	1.78051
53	0x3fa144d6	1.2599132
54	0x3f198e06	0.59982336
55	0x3f6f508e	0.9348229
56	0x3f4db8ae	0.80359924
57	0x3ecae73f	0.39629552
58	0x401ed05c	2.4814672
59	0x3fb977e0	1.4489708
60	0x3fb34a4d	1.400705
61	0x402547da	2.5825105
62	0x3f1f308d	0.6218346
63	0x3fc2a829	1.5207568

bias f4 [64]
0	0xbe9abe18	-0.30223155
1	0xbdb1e9dc	-0.08687183
2	0xbed55cd4	-0.41672385
3	0xbe817f2e	-0.25292343
4	0xbecb585c	-0.3971585
5	0xbe2d6721	-0.16933872
6	0xbf45af1c	-0.7722032
7	0xbf0bf57f	-0.5467147
8	0xbe5e3fcd	-0.21704026
9	0xbec72a2c	-0.38899362
10	0xbedeb58a	-0.43497878
11	0xbee26179	-0.4421499
12	0xbf7322c7	-0.9497494
13	0xbe8a3aa6	-0.2699787
14	0xbe50356f	-0.20332883
15	0xbde67f8a	-0.11254795
16	0xbdd846af	-0.10560357
17	0xbe9b334f	-0.30312583
18	0xbe42417f	-0.18970297
19	0xbd2a00f1	-0.041504804
20	0xbf28aca7	-0.65888447
21	0xbefb45e4	-0.4907676
22	0xbf3feb9e	-0.749689
23	0xbeaafa9d	-0.33394328
24	0xbf34d3f7	-0.7063593
25	0xbed86438	-0.4226396
26	0xbea26203	-0.31715402
27	0xbeeecbff	-0.46640012
28	0xbde3d43f	-0.11124467
29	0xbf164d4c	-0.58711696
30	0xbee30c46	-0.443453
31	0xbac07664	-0.0014683721
32	0xbf6c343c	-0.92267203
33	0xbead666a	-0.33867198
34	0xbeabc5dd	-0.33549395
35	0xbf144d59	-0.57930523
36	0xbed9570b	-0.4244922
37	0xbe8dc976	-0.27692765
38	0xbee37c91	-0.44430974
39	0xbef1bb9b	-0.47213444
40	0xbed762f2	-0.42067677
41	0xbecd9aa7	-0.40157053
42	0xbf1095a3	-0.5647833
43	0xbeb3770b	-0.3505176
44	0xbe95913d	-0.2921237
45	0xbec061fb	-0.37574753
46	0xbf301b9d	-0.68792135
47	0xbec01617	-0.37516853
48	0xbeb2979b	-0.3488129
49	0xbe2dc073	-0.16967945
50	0xbf2a46fd	-0.6651457
51	0xbf2924f1	-0.66071993
52	0xbeecc895	-0.46246782
53	0xbed845e0	-0.4224081
54	0xbe2005ed	-0.1562726
55	0xbe23311d	-0.15936704
56	0xbd746c84	-0.0596738
57	0xbc32dfe6	-0.010917639
58	0xbf36a5e9	-0.7134691
59	0xbeaa5fea	-0.33276302
60	0xbeb8c6d2	-0.36089188
61	0xbf5bd748	-0.8587537
62	0xbecc8493	-0.39944896
63	0xbea8de10	-0.3298192

running_mean f4 [64]
0	0xc1f0a7ed	-30.081995
1	0xc0642e65	-3.5653317
2	0xc1b36d48	-22.42836
3	0xc18fcf60	-17.976257
4	0xc16c6935	-14.775685
5	0xc1869a59	-16.825365
6	0xc1af7b26	-21.935131
7	0xc17279ce	-15.154737
8	0xc0bd3fc8	-5.914036
9	0xc17a7e52	-15.65584
10	0xc124a75a	-10.290857
11	0xc1c28e5e	-24.319515
12	0xc1f099c4	-30.07508
13	0xc1925d34	-18.29551
14	0xc1575298	-13.4576645
15	0xc158d942	-13.553041
16	0xc0394cc8	-2.8953114
17	0xc14eeebb	-12.933284
18	0xc1215475	-10.083119
19	0x40895006	4.2910185
20	0xc1d4438d	-26.532984
21	0xc1021659	-8.130456
22	0xc1ac1893	-21.512
23	0xc190b576	-18.088604
24	0xc1cc0adc	-25.505302
25	0xc13277c7	-11.1542425
26	0x4155c0a0	13.359528
27	0xc19dcad6	-19.724041
28	0x407d6e7c	3.9598684
29	0xc19b2edb	-19.397879
30	0xc1b1aac5	-22.208384
31	0x3f690205	0.91018707
32	0xc2166df2	-37.60737
33	0xc15bfecf	-13.749709
34	0xc18d03c5	-17.62684
35	0xc1b4697b	-22.551504
36	0xc198b625	-19.088938
37	0xc15a7f5a	-13.656092
38	0xc186c282	-16.844975
39	0xc19fe6fa	-19.987782
40	0xc1d0c01a	-26.0938
41	0xc1c067e4	-24.050728
42	0xc1645afb	-14.272212
43	0xc0c52828	-6.161152
44	0xc12d7475	-10.840932
45	0xc12a529c	-10.645168
46	0x41d9319d	27.149225
47	0xc0c51b60	-6.1595917
48	0xc1866a77	-16.801985
49	0x40a3a979	5.1144376
50	0xc1c6da68	-24.856644
51	0xc1ac3468	-21.525589
52	0xc1a332e8	-20.399857
53	0xc17dc7e3	-15.8613
54	0x413ceb7d	11.807492
55	0xc0da7fe4	-6.8281116
56	0xc00afa74	-2.1715364
57	0x404d7236	3.210096
58	0xc1f056d7	-30.042402
59	0xc1795548	-15.583321
60	0xc184360a	-16.526386
61	0xc21f6359	-39.84702
62	0x41654097	14.328269
63	0xc1a827e2	-21.019474

running_var f4 [64]
0	0x45487dfa	3207.8735
1	0x444d4c4e	821.19226
2	0x44e66df0	1843.4355
3	0x44aeba53	1397.8226
4	0x44b24723	1426.223
5	0x44c8258e	1601.1736
6	0x44bc7cb5	1507.8971
7	0x449b529c	1242.5815
8	0x440c595c	561.39624
9	0x44a5c5c1	1326.1798
10	0x4451a307	838.5473
11	0x4538db73	2957.7156
12	0x4505ddd0	2141.8633
13	0x44d3851f	1692.16
14	0x4496e8d7	1207.2762
15	0x4472167d	968.3514
16	0x4411c668	583.1001
17	0x44894627	1098.1923
18	0x449f3475	1273.6393
19	0x43f88ebd	497.11514
20	0x451e5e3e	2533.8901
21	0x44649a85	914.41437
22	0x44df2c59	1785.3859
23	0x44bd2b0e	1513.3455
24	0x45201884	2561.5322
25	0x446d8925	950.1429
26	0x443b49df	749.15424
27	0x449c0e57	1248.4481
28	0x43ad14d4	346.16272
29	0x44a4949d	1316.6442
30	0x44af03ff	1400.1249
31	0x44111aa7	580.41644
32	0x4577bfee	3963.9956
33	0x44a7f89f	1343.7694
34	0x449ff40e	1279.6267
35	0x44d4ac0d	1701.3766
36	0x44d4c9c1	1702.3048
37	0x44986ac0	1219.3359
38	0x449b33c8	1241.6182
39	0x44d678fc	1715.7808
40	0x44a97fa5	1355.9889
41	0x4517094b	2416.5808
42	0x44762ae3	984.6701
43	0x443cd900	755.3906
44	0x44588f3a	866.2379
45	0x443220ca	712.5123
46	0x44e78670	1852.2012
47	0x44533837	844.87836
48	0x44c6fff4	1591.9985
49	0x43cb7c92	406.9732
50	0x44e38ee8	1820.4658
51	0x44f1982c	1932.7554
52	0x44ed2ea2	1897.4573
53	0x44b0665e	1411.199
54	0x441560f6	597.515
55	0x445b9604	878.344
56	0x4439bf0b	742.98505
57	0x43c1471f	386.55563
58	0x44f604c7	1968.1493
59	0x44f769f1	1979.3107
60	0x44d2c662	1686.1995
61	0x459b7875	4975.057
62	0x443ca44d	754.5672
63	0x44e62ad5	1841.3385

weight f4 [32, 64, 3]
0	0x3e916620	0.28398228
1	0xbe9ad5ce	-0.30241245
2	0x3c96c160	0.018402755
3	0x3f44f17d	0.7693098
4	0x3e6c01a1	0.23047496
5	0x3f9ca966	1.2239196
6	0xbc3ff357	-0.011715732
7	0xbe876504	-0.26444256
8	0x3dc84622	0.09779002
9	0xbe5958e2	-0.21225312
10	0xbdb9e4fb	-0.09076878
11	0x3f50c713	0.81553763
12	0x3f5d60b7	0.864757
13	0x3ed8c9d7	0.42341492
14	0x3db2d43b	0.08731886
15	0xbfb59935	-1.418738
16	0xbf77503f	-0.9660682
17	0xbfc9c24f	-1.5762423
18	0xbde82e46	-0.11336951
19	0x3e8d92a8	0.27650952
20	0x3f443cb5	0.7665513
21	0x3f5a1d21	0.852007
22	0x3eb064d6	0.34451932
23	0x3ea29288	0.3175242
24	0xbf00940e	-0.50225914
25	0x3e27c6a4	0.16384369
26	0x3f788f81	0.9709397
27	0xbe533d95	-0.2062896
28	0x3e96e500	0.29471588
29	0x3f2311d3	0.6369907
30	0x3e303b9f	0.17210244
31	0x3d03a836	0.03214284
32	0x3e6b6fc7	0.22991858
33	0x3f3a20b2	0.7270614
34	0x3f9cc575	1.2247759
35	0x3f2ead3d	0.6823309
36	0xbe18a6ae	-0.14907333
37	0xbe47d3a8	-0.19514334
38	0xbe32e79c	-0.17471164
39	0xbe0d105f	-0.13775776
40	0xbc893f10	-0.016753703
41	0x3f84cf9d	1.0375859
42	0x3e1647be	0.14675805
43	0x3c48f66a	0.012265781
44	0x3ad86178	0.001650854
45	0x3f291661	0.6604977
46	0x3ec26541	0.37967876
47	0x3e36c3e4	0.17848164
48	0xbf386029	-0.7202173
49	0xbf16570c	-0.58726573
50	0xbebef053	-0.37292728
51	0xbeacd2ce	-0.3375458
52	0x3c023920	0.00794819
53	0xbe8711ee	-0.26380867
54	0xbec0ff46	-0.37694758
55	0xbe8c4cbf	-0.27402303
56	0xbd877e96	-0.06615941
57	0x3e10aec9	0.14129175
58	0xbdbc8860	-0.09205699
59	0x3f11587a	0.5677563
60	0x3dc17219	0.094455905
61	0xbea155fc	-0.31510913
62	0xbfaadc9c	-1.3348575
63	0xbf1cc398	-0.6123595
64	0xbdd3ed5b	-0.10348006
65	0xbebd071a	-0.3691948
66	0xbee3fefe	-0.4453048
67	0xbd841263	-0.064488195
68	0xbeb7177a	-0.357601
69	0x3e539033	0.20660476
70	0xbec0565e	-0.37565893
71	0xbfcb638a	-1.5889752
72	0xbfc1e3c9	-1.514764
73	0xbf7b9d91	-0.982873
74	0xbf0aa1ed	-0.5415333
75	0xbef6820e	-0.481461
76	0xbf3e97f8	-0.74450636
77	0xbf9a965b	-1.2077135
78	0x3f6f0aa5	0.9337562
79	0x3f4aca36	0.792148
80	0x3fd92411	1.6964132
81	0xbda878a8	-0.08226138
82	0x3d16cac2	0.03681446
83	0x3c90b487	0.017664207
84	0xbe0af2c6	-0.13569173
85	0xbedae024	-0.4274913
86	0xbeae497c	-0.3404044
87	0x3f4264c4	0.75935006
88	0xbe07111c	-0.1319012
89	0x3da8ca77	0.08241742
90	0x3eb02e86	0.34410495
91	0x3f1e4e8f	0.6183862
92	0xbddebb56	-0.10875575
93	0xbe04e8b9	-0.12979402
94	0x3de1ad14	0.1101934
95	0x3f16add1	0.5885897
96	0x400b2f2d	2.1747544
97	0x3fd06d7c	1.6283412
98	0x3fd9a782	1.7004244
99	0x3e8ac0ac	0.27100122
100	0x3ef06260	0.46950054
101	0x3f89e921	1.077427
102	0x3ea65dbe	0.32493395
103	0x3e19c980	0.15018272
104	0xbfeaae21	-1.833439
105	0x3ecdc045	0.40185753
106	0x3d3bfea2	0.045897134
107	0x3ecb5e1e	0.39720243
108	0xbf96be92	-1.1776907
109	0xbf25693b	-0.64613694
110	0xbf8ad002	-1.0844729
111	0x3cba25b4	0.022723056
112	0x3f1b0f7c	0.605705
113	0x3f18b072	0.59644234
114	0x3f597551	0.84944636
115	0x3ef7b1b8	0.48377776
116	0x3e87af9b	0.26501164
117	0xbf99ecb2	-1.2025359
118	0xc006632c	-2.099803
119	0xc0a26918	-5.075329
120	0x3ece4cb6	0.402929
121	0xbdc68921	-0.09694124
122	0xbefd51fb	-0.4947661
123	0xbeec5f6a	-0.46166545
124	0xbf8e4b14	-1.1116662
125	0xbff0114a	-1.8755276
126	0x3fb11568	1.3834658
127	0x3f24ca1c	0.64370894
128	0x3e9c366d	0.30510274
129	0x3e297d2b	0.16551654
130	0x3e3e49a5	0.1858278
131	0xbd102a73	-0.035196733
132	0x3ecfd8f9	0.40595224
133	0xbe5a3282	-0.2130833
134	0x3cb81a12	0.022473369
135	0xbf1d5221	-0.61453444
136	0xbf1732d6	-0.59061944
137	0xbf045de4	-0.51705766
138	0x3f5f31da	0.8718544
139	0x3ed334e4	0.4125129
140	0xbed4f120	-0.41590214
141	0xbe188e36	-0.14897999
142	0xbea0ad8b	-0.31382403
143	0xbf872b6c	-1.0560126
144	0x3cae6770	0.021289557
145	0x3e4cf0dc	0.20013756
146	0x3e893738	0.2679994
147	0x3e25de1e	0.16198012
148	0xbd4fbb7e	-0.050715916
149	0xbedcebf9	-0.43148783
150	0xbdbcc7f2	-0.09217824
151	0xbf32e6f7	-0.69883674
152	0xc00054ea	-2.0051827
153	0xbd820a76	-0.063496515
154	0xbd440f11	-0.04786593
155	0xbf52a150	-0.82277393
156	0x3f1d52ae	0.61454284
157	0x3f4bdd27	0.79634327
158	0x3f97c621	1.1857339
159	0x3e986dc8	0.29771256
160	0x3d8c496c	0.068499416
161	0xbf0061d3	-0.5014927
162	0xbb84828b	-0.0040438822
163	0xbed1fbe1	-0.4101248
164	0xbf07dd22	-0.53071797
165	0x3ee08be6	0.43856734
166	0x3e0da9c0	0.13834286
167	0x3ee3c7f0	0.44488478
168	0xbd789934	-0.06069298
169	0xbd0dbf49	-0.034606252
170	0xbe536995	-0.20645745
171	0x3e28d019	0.16485633
172	0xbf01203e	-0.5043982
173	0xbf4497e4	-0.76794267
174	0x3f508cc0	0.8146477
175	0x3eb6ffcf	0.3574204
176	0xbe12a436	-0.14320454
177	0xbf83f2c2	-1.0308459
178	0xbfbb306d	-1.4624153
179	0xbfcb0a88	-1.5862589
180	0x3e032cfb	0.12810127
181	0x3ebc9c5c	0.36838043
182	0x40026226	2.0372405
183	0x3f6a20af	0.9145612
184	0x3e82b7f3	0.25530967
185	0xbf247795	-0.6424497
186	0x3f6eb6d0	0.932477
187	0x3f64d379	0.8938518
188	0x3f267452	0.6502124
189	0xbf259d30	-0.64692974
190	0xbebee0b3	-0.37280807
191	0x3f2dda4f	0.6791124
192	0xbd823b24	-0.063589364
193	0x3eb7f88b	0.3593181
194	0x3f84033f	1.0313491
195	0xbfc6684e	-1.5500581
196	0xbf5f4424	-0.8721335
197	0x3f8b74a5	1.0894972
198	0x3d41fe26	0.047361515
199	0xbebda06a	-0.3703645
200	0x3eeaacb2	0.4583488
201	0x3e46e422	0.19422963
202	0x3d90bf82	0.07067777
203	0x3fbe5651	1.4870092
204	0x3ea7e40e	0.3279118
205	0xbddb6466	-0.10712509
206	0x3e9125cf	0.28349158
207	0x3e7fcac5	0.24979694
208	0xbe7804a0	-0.24220514
209	0xbf901f9c	-1.1259646
210	0xbf532f55	-0.824941
211	0xbe6ffeaa	-0.2343699
212	0xbe798c3b	-0.243699
213	0x3f552c33	0.8327057
214	0xbe9d9964	-0.3078109
215	0x3f28daa3	0.65958613
216	0xbfb0017b	-1.3750452
217	0xbb9b4000	-0.004737854
218	0x3f64aaf2	0.8932334
219	0xbf1c3cad	-0.61030084
220	0xbe4b1467	-0.19832002
221	0x3e612f0a	0.219906
222	0x3bf7562d	0.0075481148
223	0x3ec9c220	0.39405918
224	0xbddff1ca	-0.109347895
225	0x3f66e51a	0.9019333
226	0xbe4fff14	-0.20312148
227	0xbf3f7c10	-0.7479868
228	0xbf281f70	-0.6567297
229	0xbe2a5d3f	-0.16637133
230	0xbe69412f	-0.22778772
231	0xbf959ba9	-1.1688129
232	0xbf59d6ac	-0.8509319
233	0x3e8e649b	0.2781113
234	0x3f400d27	0.7502007
235	0xbef27530	-0.47355032
236	0xbf989773	-1.1921219
237	0x3ea16ba5	0.3152744
238	0xbdfca4a8	-0.12336093
239	0x3f086132	0.5327331
240	0x3e8b4fc2	0.27209288
241	0xbe835915	-0.25653902
242	0xbdda857c	-0.106699914
243	0xbeefc536	-0.46830148
244	0xbe5b11fb	-0.21393578
245	0x3ebb558a	0.365887
246	0xbe77356a	-0.2414147
247	0xbf143b10	-0.5790262
248	0xc0044557	-2.0667322
249	0xbfdf1f6d	-1.7431465
250	0xbe7bb783	-0.24581723
251	0x3eef2d95	0.46714464
252	0x3fad0c52	1.3519385
253	0x3dcf1cdd	0.10112927
254	0xbf1481f8	-0.58010817
255	0x3e875aa3	0.26436338

bias f4 [32]
0	0xbc395745	-0.011312311
1	0x3e1194d6	0.14216933
2	0x3d75722f	0.059923347
3	0x3e01c94b	0.12674443
4	0x3c6f610d	0.014610541
5	0x3e4181da	0.1889719
6	0x3d271a16	0.040796362
7	0x3cc59540	0.02411902
8	0xbcadab96	-0.021199983
9	0x3e940e9a	0.2891739
10	0x3c3b7877	0.011442295
11	0xbd8140cb	-0.063111864
12	0xbe03254b	-0.12807195
13	0x3d571dd3	0.052518677
14	0xbd1fafb0	-0.038985908
15	0x3e19c44b	0.15016286
16	0xbce521b8	-0.02797018
17	0xbd3bfd96	-0.045896135
18	0x3e40c828	0.18826354
19	0x3a851215	0.0010152484
20	0xbd810e3d	-0.06301544
21	0x3e92b722	0.28655344
22	0xbe33a21f	-0.17542313
23	0x3c5bab49	0.013407537
24	0x3db697b0	0.08915651
25	0xbbc3a757	-0.005970876
26	0x3d690d87	0.056897666
27	0x3e47eeb8	0.19524658
28	0x3e951c06	0.29122943
29	0x3e196b5e	0.14982364
30	0x3e641421	0.22273304
31	0xbccd2332	-0.025041196

weight f4 [32]
0	0x3eeff3e1	0.46865752
1	0x3f30ca8d	0.6905907
2	0x3f0923f3	0.5357048
3	0x3faf0ee7	1.3676423
4	0x3f4159df	0.7552776
5	0x3e99d069	0.30041817
6	0x3efeebb3	0.497892
7	0x3ec1453f	0.37748143
8	0x3f99b239	1.2007514
9	0x3eda8d87	0.42686102
10	0x3f1964f2	0.59919655
11	0x3efaaa4c	0.4895805
12	0x3f120799	0.57042843
13	0x3f3e5780	0.74352264
14	0x3f29d156	0.66335046
15	0x3ed6fc2a	0.4198926
16	0x3f5bae40	0.8581276
17	0x3ede5b95	0.43429247
18	0x3e8b869c	0.27251136
19	0x3edb7b96	0.42867726
20	0x3ebf5193	0.37366924
21	0x3ed17cac	0.4091543
22	0x3f38799f	0.7206058
23	0x3f70e592	0.94100296
24	0x3ea27c2e	0.31735367
25	0x3edc7a84	0.43062222
26	0x3f507af2	0.814376
27	0x3eedfb89	0.4648097
28	0x3f19373c	0.59849906
29	0x3ebc1e67	0.36741945
30	0x3f18b075	0.5964425
31	0x3f2fec9c	0.6872041

bias f4 [32]
0	0xbe48b5a1	-0.19600536
1	0x3b53a223	0.0032292686
2	0x3e122f86	0.14275941
3	0xbf0afcc6	-0.5429195
4	0x3d816569	0.063181706
5	0xbc420ab7	-0.011843375
6	0x3eae2cd2	0.3401857
7	0xbcb18e79	-0.021674382
8	0xbe064aa7	-0.13114415
9	0xbcb0d9bf	-0.021588204
10	0x3e372bc0	0.17887783
11	0x3e8c49fb	0.27400193
12	0xbe127e9e	-0.14306113
13	0x3e165b95	0.14683373
14	0xbbbbb0a8	-0.005727846
15	0x3e1134da	0.14180318
16	0x3ea9e9ce	0.3318619
17	0x3d962442	0.073311344
18	0x3e35c7b2	0.17751959
19	0x3e431329	0.19050278
20	0x3c990b8c	0.018682264
21	0x3dcaa33e	0.09894417
22	0x3e7fbd2c	0.24974507
23	0xbef4874a	-0.47759467
24	0xbd03c69a	-0.032171823
25	0x3cc77509	0.024347799
26	0x3ec81ba1	0.3908358
27	0x3db96258	0.09051961
28	0x3e74396d	0.23850031
29	0x3d880b8f	0.066428296
30	0x3e3cb520	0.18428469
31	0x3f2adb5f	0.66740984

running_mean f4 [32]
0	0xc041aa3c	-3.0260153
1	0xbe117df2	-0.142082
2	0xc0a7d162	-5.2443094
3	0xc05298de	-3.2905803
4	0xc02ad9e8	-2.66955
5	0xc02514fe	-2.5794063
6	0xbfd836cd	-1.6891724
7	0xc09fc8e6	-4.9932737
8	0xc005d7b7	-2.0912912
9	0xc0b732d3	-5.724954
10	0xc0051980	-2.0796814
11	0xc0112783	-2.2680366
12	0xbe1ad8f8	-0.1512183
13	0x4021a61c	2.5257635
14	0xbfbf7d63	-1.496014
15	0xc0a2b9c0	-5.0851746
16	0x3f472707	0.77793926
17	0x404ce2f0	3.2013512
18	0xc0da98cb	-6.8311515
19	0xc092fb1d	-4.5931535
20	0x3fd0cf8a	1.6313336
21	0xc05a5867	-3.4116457
22	0xbf070032	-0.52734673
23	0xc08eb1ee	-4.45922
24	0x3fb225f2	1.391783
25	0xbea29c3b	-0.3175982
26	0xbef40883	-0.47662744
27	0xbff3ad9e	-1.9037359
28	0xc085e8d6	-4.1846724
29	0xc005d653	-2.0912063
30	0xc0514879	-3.2700484
31	0x40b17a44	5.546175

running_var f4 [32]
0	0x4258683f	54.101803
1	0x426eb9dd	59.681507
2	0x4270659a	60.09922
3	0x42817dd6	64.74577
4	0x42a86dfb	84.214806
5	0x41a55d14	20.670448
6	0x429a7891	77.23548
7	0x42c57cd4	98.743805
8	0x431e6917	158.4105
9	0x42023e6d	32.560963
10	0x429d797c	78.737274
11	0x42513c76	52.309044
12	0x42816f09	64.716866
13	0x42957077	74.71966
14	0x4241aaf1	48.416935
15	0x42d64648	107.13727
16	0x42a6a28c	83.317474
17	0x4244bbf8	49.183563
18	0x42005b89	32.08939
19	0x4265cd73	57.450634
20	0x41be7a2d	23.809656
21	0x429b900b	77.781334
22	0x42ce4cbd	103.14988
23	0x422e84ac	43.629562
24	0x422e2a99	43.5416
25	0x425c3c74	55.059036
26	0x430f4e8b	143.30681
27	0x41d71084	26.883064
28	0x42b7cf59	91.904976
29	0x426231e6	56.54873
30	0x4290c4dd	72.3845
31	0x42b30957	89.51824
